<?xml version="1.0"?>
<net name="torch_jit" version="11">
	<layers>
		<layer id="0" name="images" type="Parameter" version="opset1">
			<data shape="?,3,224,224" element_type="f16" />
			<output>
				<port id="0" precision="FP16" names="images">
					<dim>-1</dim>
					<dim>3</dim>
					<dim>224</dim>
					<dim>224</dim>
				</port>
			</output>
		</layer>
		<layer id="1" name="onnx::Conv_1316" type="Const" version="opset1">
			<data element_type="f16" shape="24, 3, 3, 3" offset="0" size="1296" />
			<output>
				<port id="0" precision="FP16" names="onnx::Conv_1316">
					<dim>24</dim>
					<dim>3</dim>
					<dim>3</dim>
					<dim>3</dim>
				</port>
			</output>
		</layer>
		<layer id="2" name="/conv1/conv1.0/Conv/WithoutBiases" type="Convolution" version="opset1">
			<data strides="2, 2" dilations="1, 1" pads_begin="1, 1" pads_end="1, 1" auto_pad="explicit" />
			<input>
				<port id="0" precision="FP16">
					<dim>-1</dim>
					<dim>3</dim>
					<dim>224</dim>
					<dim>224</dim>
				</port>
				<port id="1" precision="FP16">
					<dim>24</dim>
					<dim>3</dim>
					<dim>3</dim>
					<dim>3</dim>
				</port>
			</input>
			<output>
				<port id="2" precision="FP16">
					<dim>-1</dim>
					<dim>24</dim>
					<dim>112</dim>
					<dim>112</dim>
				</port>
			</output>
		</layer>
		<layer id="3" name="Reshape_137" type="Const" version="opset1">
			<data element_type="f16" shape="1, 24, 1, 1" offset="1296" size="48" />
			<output>
				<port id="0" precision="FP16">
					<dim>1</dim>
					<dim>24</dim>
					<dim>1</dim>
					<dim>1</dim>
				</port>
			</output>
		</layer>
		<layer id="4" name="/conv1/conv1.0/Conv" type="Add" version="opset1">
			<data auto_broadcast="numpy" />
			<input>
				<port id="0" precision="FP16">
					<dim>-1</dim>
					<dim>24</dim>
					<dim>112</dim>
					<dim>112</dim>
				</port>
				<port id="1" precision="FP16">
					<dim>1</dim>
					<dim>24</dim>
					<dim>1</dim>
					<dim>1</dim>
				</port>
			</input>
			<output>
				<port id="2" precision="FP16" names="/conv1/conv1.0/Conv_output_0">
					<dim>-1</dim>
					<dim>24</dim>
					<dim>112</dim>
					<dim>112</dim>
				</port>
			</output>
		</layer>
		<layer id="5" name="/conv1/conv1.2/Relu" type="ReLU" version="opset1">
			<input>
				<port id="0" precision="FP16">
					<dim>-1</dim>
					<dim>24</dim>
					<dim>112</dim>
					<dim>112</dim>
				</port>
			</input>
			<output>
				<port id="1" precision="FP16" names="/conv1/conv1.2/Relu_output_0">
					<dim>-1</dim>
					<dim>24</dim>
					<dim>112</dim>
					<dim>112</dim>
				</port>
			</output>
		</layer>
		<layer id="6" name="/maxpool/MaxPool" type="MaxPool" version="opset8">
			<data strides="2, 2" dilations="1, 1" pads_begin="1, 1" pads_end="1, 1" kernel="3, 3" rounding_type="floor" auto_pad="explicit" index_element_type="i64" axis="0" />
			<input>
				<port id="0" precision="FP16">
					<dim>-1</dim>
					<dim>24</dim>
					<dim>112</dim>
					<dim>112</dim>
				</port>
			</input>
			<output>
				<port id="1" precision="FP16" names="/maxpool/MaxPool_output_0">
					<dim>-1</dim>
					<dim>24</dim>
					<dim>56</dim>
					<dim>56</dim>
				</port>
				<port id="2" precision="I64">
					<dim>-1</dim>
					<dim>24</dim>
					<dim>56</dim>
					<dim>56</dim>
				</port>
			</output>
		</layer>
		<layer id="7" name="Reshape_150" type="Const" version="opset1">
			<data element_type="f16" shape="24, 1, 1, 3, 3" offset="1344" size="432" />
			<output>
				<port id="0" precision="FP16">
					<dim>24</dim>
					<dim>1</dim>
					<dim>1</dim>
					<dim>3</dim>
					<dim>3</dim>
				</port>
			</output>
		</layer>
		<layer id="8" name="/stage2/stage2.0/branch1/branch1.0/Conv/WithoutBiases" type="GroupConvolution" version="opset1">
			<data strides="2, 2" pads_begin="1, 1" pads_end="1, 1" dilations="1, 1" auto_pad="explicit" />
			<input>
				<port id="0" precision="FP16">
					<dim>-1</dim>
					<dim>24</dim>
					<dim>56</dim>
					<dim>56</dim>
				</port>
				<port id="1" precision="FP16">
					<dim>24</dim>
					<dim>1</dim>
					<dim>1</dim>
					<dim>3</dim>
					<dim>3</dim>
				</port>
			</input>
			<output>
				<port id="2" precision="FP16">
					<dim>-1</dim>
					<dim>24</dim>
					<dim>28</dim>
					<dim>28</dim>
				</port>
			</output>
		</layer>
		<layer id="9" name="Reshape_202" type="Const" version="opset1">
			<data element_type="f16" shape="1, 24, 1, 1" offset="1776" size="48" />
			<output>
				<port id="0" precision="FP16">
					<dim>1</dim>
					<dim>24</dim>
					<dim>1</dim>
					<dim>1</dim>
				</port>
			</output>
		</layer>
		<layer id="10" name="/stage2/stage2.0/branch1/branch1.0/Conv" type="Add" version="opset1">
			<data auto_broadcast="numpy" />
			<input>
				<port id="0" precision="FP16">
					<dim>-1</dim>
					<dim>24</dim>
					<dim>28</dim>
					<dim>28</dim>
				</port>
				<port id="1" precision="FP16">
					<dim>1</dim>
					<dim>24</dim>
					<dim>1</dim>
					<dim>1</dim>
				</port>
			</input>
			<output>
				<port id="2" precision="FP16" names="/stage2/stage2.0/branch1/branch1.0/Conv_output_0">
					<dim>-1</dim>
					<dim>24</dim>
					<dim>28</dim>
					<dim>28</dim>
				</port>
			</output>
		</layer>
		<layer id="11" name="onnx::Conv_1322" type="Const" version="opset1">
			<data element_type="f16" shape="24, 24, 1, 1" offset="1824" size="1152" />
			<output>
				<port id="0" precision="FP16" names="onnx::Conv_1322">
					<dim>24</dim>
					<dim>24</dim>
					<dim>1</dim>
					<dim>1</dim>
				</port>
			</output>
		</layer>
		<layer id="12" name="/stage2/stage2.0/branch1/branch1.2/Conv/WithoutBiases" type="Convolution" version="opset1">
			<data strides="1, 1" dilations="1, 1" pads_begin="0, 0" pads_end="0, 0" auto_pad="explicit" />
			<input>
				<port id="0" precision="FP16">
					<dim>-1</dim>
					<dim>24</dim>
					<dim>28</dim>
					<dim>28</dim>
				</port>
				<port id="1" precision="FP16">
					<dim>24</dim>
					<dim>24</dim>
					<dim>1</dim>
					<dim>1</dim>
				</port>
			</input>
			<output>
				<port id="2" precision="FP16">
					<dim>-1</dim>
					<dim>24</dim>
					<dim>28</dim>
					<dim>28</dim>
				</port>
			</output>
		</layer>
		<layer id="13" name="Reshape_217" type="Const" version="opset1">
			<data element_type="f16" shape="1, 24, 1, 1" offset="2976" size="48" />
			<output>
				<port id="0" precision="FP16">
					<dim>1</dim>
					<dim>24</dim>
					<dim>1</dim>
					<dim>1</dim>
				</port>
			</output>
		</layer>
		<layer id="14" name="/stage2/stage2.0/branch1/branch1.2/Conv" type="Add" version="opset1">
			<data auto_broadcast="numpy" />
			<input>
				<port id="0" precision="FP16">
					<dim>-1</dim>
					<dim>24</dim>
					<dim>28</dim>
					<dim>28</dim>
				</port>
				<port id="1" precision="FP16">
					<dim>1</dim>
					<dim>24</dim>
					<dim>1</dim>
					<dim>1</dim>
				</port>
			</input>
			<output>
				<port id="2" precision="FP16" names="/stage2/stage2.0/branch1/branch1.2/Conv_output_0">
					<dim>-1</dim>
					<dim>24</dim>
					<dim>28</dim>
					<dim>28</dim>
				</port>
			</output>
		</layer>
		<layer id="15" name="/stage2/stage2.0/branch1/branch1.4/Relu" type="ReLU" version="opset1">
			<input>
				<port id="0" precision="FP16">
					<dim>-1</dim>
					<dim>24</dim>
					<dim>28</dim>
					<dim>28</dim>
				</port>
			</input>
			<output>
				<port id="1" precision="FP16" names="/stage2/stage2.0/branch1/branch1.4/Relu_output_0">
					<dim>-1</dim>
					<dim>24</dim>
					<dim>28</dim>
					<dim>28</dim>
				</port>
			</output>
		</layer>
		<layer id="16" name="onnx::Conv_1325" type="Const" version="opset1">
			<data element_type="f16" shape="24, 24, 1, 1" offset="3024" size="1152" />
			<output>
				<port id="0" precision="FP16" names="onnx::Conv_1325">
					<dim>24</dim>
					<dim>24</dim>
					<dim>1</dim>
					<dim>1</dim>
				</port>
			</output>
		</layer>
		<layer id="17" name="/stage2/stage2.0/branch2/branch2.0/Conv/WithoutBiases" type="Convolution" version="opset1">
			<data strides="1, 1" dilations="1, 1" pads_begin="0, 0" pads_end="0, 0" auto_pad="explicit" />
			<input>
				<port id="0" precision="FP16">
					<dim>-1</dim>
					<dim>24</dim>
					<dim>56</dim>
					<dim>56</dim>
				</port>
				<port id="1" precision="FP16">
					<dim>24</dim>
					<dim>24</dim>
					<dim>1</dim>
					<dim>1</dim>
				</port>
			</input>
			<output>
				<port id="2" precision="FP16">
					<dim>-1</dim>
					<dim>24</dim>
					<dim>56</dim>
					<dim>56</dim>
				</port>
			</output>
		</layer>
		<layer id="18" name="Reshape_233" type="Const" version="opset1">
			<data element_type="f16" shape="1, 24, 1, 1" offset="4176" size="48" />
			<output>
				<port id="0" precision="FP16">
					<dim>1</dim>
					<dim>24</dim>
					<dim>1</dim>
					<dim>1</dim>
				</port>
			</output>
		</layer>
		<layer id="19" name="/stage2/stage2.0/branch2/branch2.0/Conv" type="Add" version="opset1">
			<data auto_broadcast="numpy" />
			<input>
				<port id="0" precision="FP16">
					<dim>-1</dim>
					<dim>24</dim>
					<dim>56</dim>
					<dim>56</dim>
				</port>
				<port id="1" precision="FP16">
					<dim>1</dim>
					<dim>24</dim>
					<dim>1</dim>
					<dim>1</dim>
				</port>
			</input>
			<output>
				<port id="2" precision="FP16" names="/stage2/stage2.0/branch2/branch2.0/Conv_output_0">
					<dim>-1</dim>
					<dim>24</dim>
					<dim>56</dim>
					<dim>56</dim>
				</port>
			</output>
		</layer>
		<layer id="20" name="/stage2/stage2.0/branch2/branch2.2/Relu" type="ReLU" version="opset1">
			<input>
				<port id="0" precision="FP16">
					<dim>-1</dim>
					<dim>24</dim>
					<dim>56</dim>
					<dim>56</dim>
				</port>
			</input>
			<output>
				<port id="1" precision="FP16" names="/stage2/stage2.0/branch2/branch2.2/Relu_output_0">
					<dim>-1</dim>
					<dim>24</dim>
					<dim>56</dim>
					<dim>56</dim>
				</port>
			</output>
		</layer>
		<layer id="21" name="Reshape_245" type="Const" version="opset1">
			<data element_type="f16" shape="24, 1, 1, 3, 3" offset="4224" size="432" />
			<output>
				<port id="0" precision="FP16">
					<dim>24</dim>
					<dim>1</dim>
					<dim>1</dim>
					<dim>3</dim>
					<dim>3</dim>
				</port>
			</output>
		</layer>
		<layer id="22" name="/stage2/stage2.0/branch2/branch2.3/Conv/WithoutBiases" type="GroupConvolution" version="opset1">
			<data strides="2, 2" pads_begin="1, 1" pads_end="1, 1" dilations="1, 1" auto_pad="explicit" />
			<input>
				<port id="0" precision="FP16">
					<dim>-1</dim>
					<dim>24</dim>
					<dim>56</dim>
					<dim>56</dim>
				</port>
				<port id="1" precision="FP16">
					<dim>24</dim>
					<dim>1</dim>
					<dim>1</dim>
					<dim>3</dim>
					<dim>3</dim>
				</port>
			</input>
			<output>
				<port id="2" precision="FP16">
					<dim>-1</dim>
					<dim>24</dim>
					<dim>28</dim>
					<dim>28</dim>
				</port>
			</output>
		</layer>
		<layer id="23" name="Reshape_297" type="Const" version="opset1">
			<data element_type="f16" shape="1, 24, 1, 1" offset="4656" size="48" />
			<output>
				<port id="0" precision="FP16">
					<dim>1</dim>
					<dim>24</dim>
					<dim>1</dim>
					<dim>1</dim>
				</port>
			</output>
		</layer>
		<layer id="24" name="/stage2/stage2.0/branch2/branch2.3/Conv" type="Add" version="opset1">
			<data auto_broadcast="numpy" />
			<input>
				<port id="0" precision="FP16">
					<dim>-1</dim>
					<dim>24</dim>
					<dim>28</dim>
					<dim>28</dim>
				</port>
				<port id="1" precision="FP16">
					<dim>1</dim>
					<dim>24</dim>
					<dim>1</dim>
					<dim>1</dim>
				</port>
			</input>
			<output>
				<port id="2" precision="FP16" names="/stage2/stage2.0/branch2/branch2.3/Conv_output_0">
					<dim>-1</dim>
					<dim>24</dim>
					<dim>28</dim>
					<dim>28</dim>
				</port>
			</output>
		</layer>
		<layer id="25" name="onnx::Conv_1331" type="Const" version="opset1">
			<data element_type="f16" shape="24, 24, 1, 1" offset="4704" size="1152" />
			<output>
				<port id="0" precision="FP16" names="onnx::Conv_1331">
					<dim>24</dim>
					<dim>24</dim>
					<dim>1</dim>
					<dim>1</dim>
				</port>
			</output>
		</layer>
		<layer id="26" name="/stage2/stage2.0/branch2/branch2.5/Conv/WithoutBiases" type="Convolution" version="opset1">
			<data strides="1, 1" dilations="1, 1" pads_begin="0, 0" pads_end="0, 0" auto_pad="explicit" />
			<input>
				<port id="0" precision="FP16">
					<dim>-1</dim>
					<dim>24</dim>
					<dim>28</dim>
					<dim>28</dim>
				</port>
				<port id="1" precision="FP16">
					<dim>24</dim>
					<dim>24</dim>
					<dim>1</dim>
					<dim>1</dim>
				</port>
			</input>
			<output>
				<port id="2" precision="FP16">
					<dim>-1</dim>
					<dim>24</dim>
					<dim>28</dim>
					<dim>28</dim>
				</port>
			</output>
		</layer>
		<layer id="27" name="Reshape_312" type="Const" version="opset1">
			<data element_type="f16" shape="1, 24, 1, 1" offset="5856" size="48" />
			<output>
				<port id="0" precision="FP16">
					<dim>1</dim>
					<dim>24</dim>
					<dim>1</dim>
					<dim>1</dim>
				</port>
			</output>
		</layer>
		<layer id="28" name="/stage2/stage2.0/branch2/branch2.5/Conv" type="Add" version="opset1">
			<data auto_broadcast="numpy" />
			<input>
				<port id="0" precision="FP16">
					<dim>-1</dim>
					<dim>24</dim>
					<dim>28</dim>
					<dim>28</dim>
				</port>
				<port id="1" precision="FP16">
					<dim>1</dim>
					<dim>24</dim>
					<dim>1</dim>
					<dim>1</dim>
				</port>
			</input>
			<output>
				<port id="2" precision="FP16" names="/stage2/stage2.0/branch2/branch2.5/Conv_output_0">
					<dim>-1</dim>
					<dim>24</dim>
					<dim>28</dim>
					<dim>28</dim>
				</port>
			</output>
		</layer>
		<layer id="29" name="/stage2/stage2.0/branch2/branch2.7/Relu" type="ReLU" version="opset1">
			<input>
				<port id="0" precision="FP16">
					<dim>-1</dim>
					<dim>24</dim>
					<dim>28</dim>
					<dim>28</dim>
				</port>
			</input>
			<output>
				<port id="1" precision="FP16" names="/stage2/stage2.0/branch2/branch2.7/Relu_output_0">
					<dim>-1</dim>
					<dim>24</dim>
					<dim>28</dim>
					<dim>28</dim>
				</port>
			</output>
		</layer>
		<layer id="30" name="/stage2/stage2.0/Concat" type="Concat" version="opset1">
			<data axis="1" />
			<input>
				<port id="0" precision="FP16">
					<dim>-1</dim>
					<dim>24</dim>
					<dim>28</dim>
					<dim>28</dim>
				</port>
				<port id="1" precision="FP16">
					<dim>-1</dim>
					<dim>24</dim>
					<dim>28</dim>
					<dim>28</dim>
				</port>
			</input>
			<output>
				<port id="2" precision="FP16" names="/stage2/stage2.0/Concat_output_0">
					<dim>-1</dim>
					<dim>48</dim>
					<dim>28</dim>
					<dim>28</dim>
				</port>
			</output>
		</layer>
		<layer id="31" name="567" type="Const" version="opset1">
			<data element_type="i64" shape="5" offset="5904" size="40" />
			<output>
				<port id="0" precision="I64" names="567">
					<dim>5</dim>
				</port>
			</output>
		</layer>
		<layer id="32" name="/stage2/stage2.0/Reshape" type="Reshape" version="opset1">
			<data special_zero="true" />
			<input>
				<port id="0" precision="FP16">
					<dim>-1</dim>
					<dim>48</dim>
					<dim>28</dim>
					<dim>28</dim>
				</port>
				<port id="1" precision="I64">
					<dim>5</dim>
				</port>
			</input>
			<output>
				<port id="2" precision="FP16" names="/stage2/stage2.0/Reshape_output_0">
					<dim>-1</dim>
					<dim>2</dim>
					<dim>24</dim>
					<dim>28</dim>
					<dim>28</dim>
				</port>
			</output>
		</layer>
		<layer id="33" name="Constant_325" type="Const" version="opset1">
			<data element_type="i64" shape="5" offset="5944" size="40" />
			<output>
				<port id="0" precision="I64">
					<dim>5</dim>
				</port>
			</output>
		</layer>
		<layer id="34" name="/stage2/stage2.0/Transpose" type="Transpose" version="opset1">
			<input>
				<port id="0" precision="FP16">
					<dim>-1</dim>
					<dim>2</dim>
					<dim>24</dim>
					<dim>28</dim>
					<dim>28</dim>
				</port>
				<port id="1" precision="I64">
					<dim>5</dim>
				</port>
			</input>
			<output>
				<port id="2" precision="FP16" names="/stage2/stage2.0/Transpose_output_0">
					<dim>-1</dim>
					<dim>24</dim>
					<dim>2</dim>
					<dim>28</dim>
					<dim>28</dim>
				</port>
			</output>
		</layer>
		<layer id="35" name="/stage2/stage2.0/Shape" type="ShapeOf" version="opset3">
			<data output_type="i64" />
			<input>
				<port id="0" precision="FP16">
					<dim>-1</dim>
					<dim>48</dim>
					<dim>28</dim>
					<dim>28</dim>
				</port>
			</input>
			<output>
				<port id="1" precision="I64" names="/stage2/stage2.0/Shape_output_0">
					<dim>4</dim>
				</port>
			</output>
		</layer>
		<layer id="36" name="Constant_23000" type="Const" version="opset1">
			<data element_type="i64" shape="1" offset="5984" size="8" />
			<output>
				<port id="0" precision="I64">
					<dim>1</dim>
				</port>
			</output>
		</layer>
		<layer id="37" name="Constant_319" type="Const" version="opset1">
			<data element_type="i64" shape="" offset="5984" size="8" />
			<output>
				<port id="0" precision="I64" />
			</output>
		</layer>
		<layer id="38" name="/stage2/stage2.0/Gather" type="Gather" version="opset8">
			<data batch_dims="0" />
			<input>
				<port id="0" precision="I64">
					<dim>4</dim>
				</port>
				<port id="1" precision="I64">
					<dim>1</dim>
				</port>
				<port id="2" precision="I64" />
			</input>
			<output>
				<port id="3" precision="I64" names="/stage2/stage2.0/Unsqueeze_output_0">
					<dim>1</dim>
				</port>
			</output>
		</layer>
		<layer id="39" name="/stage2/stage2.0/Constant_6_output_0" type="Const" version="opset1">
			<data element_type="i64" shape="1" offset="5992" size="8" />
			<output>
				<port id="0" precision="I64" names="/stage2/stage2.0/Constant_6_output_0">
					<dim>1</dim>
				</port>
			</output>
		</layer>
		<layer id="40" name="/stage2/stage2.0/Unsqueeze_2_output_0" type="Const" version="opset1">
			<data element_type="i64" shape="1" offset="6000" size="8" />
			<output>
				<port id="0" precision="I64" names="/stage2/stage2.0/Unsqueeze_2_output_0">
					<dim>1</dim>
				</port>
			</output>
		</layer>
		<layer id="41" name="/stage2/stage2.0/Concat_2" type="Concat" version="opset1">
			<data axis="0" />
			<input>
				<port id="0" precision="I64">
					<dim>1</dim>
				</port>
				<port id="1" precision="I64">
					<dim>1</dim>
				</port>
				<port id="2" precision="I64">
					<dim>1</dim>
				</port>
				<port id="3" precision="I64">
					<dim>1</dim>
				</port>
			</input>
			<output>
				<port id="4" precision="I64" names="/stage2/stage2.0/Concat_2_output_0">
					<dim>4</dim>
				</port>
			</output>
		</layer>
		<layer id="42" name="/stage2/stage2.0/Reshape_1" type="Reshape" version="opset1">
			<data special_zero="true" />
			<input>
				<port id="0" precision="FP16">
					<dim>-1</dim>
					<dim>24</dim>
					<dim>2</dim>
					<dim>28</dim>
					<dim>28</dim>
				</port>
				<port id="1" precision="I64">
					<dim>4</dim>
				</port>
			</input>
			<output>
				<port id="2" precision="FP16" names="/stage2/stage2.0/Reshape_1_output_0">
					<dim>-1</dim>
					<dim>-1</dim>
					<dim>28</dim>
					<dim>28</dim>
				</port>
			</output>
		</layer>
		<layer id="43" name="Constant_32356" type="Const" version="opset1">
			<data element_type="i64" shape="2" offset="6008" size="16" />
			<output>
				<port id="0" precision="I64">
					<dim>2</dim>
				</port>
			</output>
		</layer>
		<layer id="44" name="Constant_32357" type="Const" version="opset1">
			<data element_type="i64" shape="2" offset="6008" size="16" />
			<output>
				<port id="0" precision="I64">
					<dim>2</dim>
				</port>
			</output>
		</layer>
		<layer id="45" name="Constant_32353" type="Const" version="opset1">
			<data element_type="i64" shape="1" offset="6024" size="8" />
			<output>
				<port id="0" precision="I64">
					<dim>1</dim>
				</port>
			</output>
		</layer>
		<layer id="46" name="/stage2/stage2.1/Shape" type="ShapeOf" version="opset3">
			<data output_type="i64" />
			<input>
				<port id="0" precision="FP16">
					<dim>-1</dim>
					<dim>-1</dim>
					<dim>28</dim>
					<dim>28</dim>
				</port>
			</input>
			<output>
				<port id="1" precision="I64" names="/stage2/stage2.1/Shape_output_0">
					<dim>4</dim>
				</port>
			</output>
		</layer>
		<layer id="47" name="/stage2/stage2.1/Constant_output_0" type="Const" version="opset1">
			<data element_type="i64" shape="1" offset="6024" size="8" />
			<output>
				<port id="0" precision="I64" names="/stage2/stage2.1/Constant_output_0">
					<dim>1</dim>
				</port>
			</output>
		</layer>
		<layer id="48" name="Constant_336" type="Const" version="opset1">
			<data element_type="i64" shape="" offset="5984" size="8" />
			<output>
				<port id="0" precision="I64" />
			</output>
		</layer>
		<layer id="49" name="/stage2/stage2.1/Gather" type="Gather" version="opset8">
			<data batch_dims="0" />
			<input>
				<port id="0" precision="I64">
					<dim>4</dim>
				</port>
				<port id="1" precision="I64">
					<dim>1</dim>
				</port>
				<port id="2" precision="I64" />
			</input>
			<output>
				<port id="3" precision="I64" names="/stage2/stage2.1/Gather_output_0">
					<dim>1</dim>
				</port>
			</output>
		</layer>
		<layer id="50" name="/stage2/stage2.1/Add" type="Add" version="opset1">
			<data auto_broadcast="numpy" />
			<input>
				<port id="0" precision="I64">
					<dim>1</dim>
				</port>
				<port id="1" precision="I64">
					<dim>1</dim>
				</port>
			</input>
			<output>
				<port id="2" precision="I64" names="/stage2/stage2.1/Add_output_0">
					<dim>1</dim>
				</port>
			</output>
		</layer>
		<layer id="51" name="/stage2/stage2.0/Constant_5_output_0" type="Const" version="opset1">
			<data element_type="i64" shape="1" offset="6032" size="8" />
			<output>
				<port id="0" precision="I64" names="/stage2/stage2.0/Constant_5_output_0">
					<dim>1</dim>
				</port>
			</output>
		</layer>
		<layer id="52" name="/stage2/stage2.1/Div" type="Divide" version="opset1">
			<data auto_broadcast="numpy" m_pythondiv="true" />
			<input>
				<port id="0" precision="I64">
					<dim>1</dim>
				</port>
				<port id="1" precision="I64">
					<dim>1</dim>
				</port>
			</input>
			<output>
				<port id="2" precision="I64" names="/stage2/stage2.1/Div_output_0">
					<dim>1</dim>
				</port>
			</output>
		</layer>
		<layer id="53" name="Constant_32352" type="Const" version="opset1">
			<data element_type="i32" shape="1" offset="6040" size="4" />
			<output>
				<port id="0" precision="I32">
					<dim>1</dim>
				</port>
			</output>
		</layer>
		<layer id="54" name="ScatterUpdate_32358" type="ScatterUpdate" version="opset3">
			<input>
				<port id="0" precision="I64">
					<dim>2</dim>
				</port>
				<port id="1" precision="I64">
					<dim>1</dim>
				</port>
				<port id="2" precision="I64">
					<dim>1</dim>
				</port>
				<port id="3" precision="I32">
					<dim>1</dim>
				</port>
			</input>
			<output>
				<port id="4" precision="I64">
					<dim>2</dim>
				</port>
			</output>
		</layer>
		<layer id="55" name="Constant_32361" type="Const" version="opset1">
			<data element_type="i64" shape="2" offset="6044" size="16" />
			<output>
				<port id="0" precision="I64">
					<dim>2</dim>
				</port>
			</output>
		</layer>
		<layer id="56" name="/stage2/stage2.1/Slice" type="StridedSlice" version="opset1">
			<data begin_mask="1, 0" end_mask="1, 0" new_axis_mask="" shrink_axis_mask="" ellipsis_mask="" />
			<input>
				<port id="0" precision="FP16">
					<dim>-1</dim>
					<dim>-1</dim>
					<dim>28</dim>
					<dim>28</dim>
				</port>
				<port id="1" precision="I64">
					<dim>2</dim>
				</port>
				<port id="2" precision="I64">
					<dim>2</dim>
				</port>
				<port id="3" precision="I64">
					<dim>2</dim>
				</port>
			</input>
			<output>
				<port id="4" precision="FP16" names="/stage2/stage2.1/Slice_output_0">
					<dim>-1</dim>
					<dim>-1</dim>
					<dim>28</dim>
					<dim>28</dim>
				</port>
			</output>
		</layer>
		<layer id="57" name="Constant_32465" type="Const" version="opset1">
			<data element_type="i64" shape="2" offset="6008" size="16" />
			<output>
				<port id="0" precision="I64">
					<dim>2</dim>
				</port>
			</output>
		</layer>
		<layer id="58" name="Constant_32464" type="Const" version="opset1">
			<data element_type="i64" shape="1" offset="6024" size="8" />
			<output>
				<port id="0" precision="I64">
					<dim>1</dim>
				</port>
			</output>
		</layer>
		<layer id="59" name="Constant_32463" type="Const" version="opset1">
			<data element_type="i32" shape="1" offset="6040" size="4" />
			<output>
				<port id="0" precision="I32">
					<dim>1</dim>
				</port>
			</output>
		</layer>
		<layer id="60" name="ScatterUpdate_32466" type="ScatterUpdate" version="opset3">
			<input>
				<port id="0" precision="I64">
					<dim>2</dim>
				</port>
				<port id="1" precision="I64">
					<dim>1</dim>
				</port>
				<port id="2" precision="I64">
					<dim>1</dim>
				</port>
				<port id="3" precision="I32">
					<dim>1</dim>
				</port>
			</input>
			<output>
				<port id="4" precision="I64">
					<dim>2</dim>
				</port>
			</output>
		</layer>
		<layer id="61" name="Constant_32467" type="Const" version="opset1">
			<data element_type="i64" shape="2" offset="6008" size="16" />
			<output>
				<port id="0" precision="I64">
					<dim>2</dim>
				</port>
			</output>
		</layer>
		<layer id="62" name="/stage2/stage2.1/Mul_1" type="Multiply" version="opset1">
			<data auto_broadcast="numpy" />
			<input>
				<port id="0" precision="I64">
					<dim>1</dim>
				</port>
				<port id="1" precision="I64">
					<dim>1</dim>
				</port>
			</input>
			<output>
				<port id="2" precision="I64" names="/stage2/stage2.1/Mul_1_output_0">
					<dim>1</dim>
				</port>
			</output>
		</layer>
		<layer id="63" name="ScatterUpdate_32468" type="ScatterUpdate" version="opset3">
			<input>
				<port id="0" precision="I64">
					<dim>2</dim>
				</port>
				<port id="1" precision="I64">
					<dim>1</dim>
				</port>
				<port id="2" precision="I64">
					<dim>1</dim>
				</port>
				<port id="3" precision="I32">
					<dim>1</dim>
				</port>
			</input>
			<output>
				<port id="4" precision="I64">
					<dim>2</dim>
				</port>
			</output>
		</layer>
		<layer id="64" name="Constant_32471" type="Const" version="opset1">
			<data element_type="i64" shape="2" offset="6044" size="16" />
			<output>
				<port id="0" precision="I64">
					<dim>2</dim>
				</port>
			</output>
		</layer>
		<layer id="65" name="/stage2/stage2.1/Slice_1" type="StridedSlice" version="opset1">
			<data begin_mask="1, 0" end_mask="1, 0" new_axis_mask="" shrink_axis_mask="" ellipsis_mask="" />
			<input>
				<port id="0" precision="FP16">
					<dim>-1</dim>
					<dim>-1</dim>
					<dim>28</dim>
					<dim>28</dim>
				</port>
				<port id="1" precision="I64">
					<dim>2</dim>
				</port>
				<port id="2" precision="I64">
					<dim>2</dim>
				</port>
				<port id="3" precision="I64">
					<dim>2</dim>
				</port>
			</input>
			<output>
				<port id="4" precision="FP16" names="/stage2/stage2.1/Slice_1_output_0">
					<dim>-1</dim>
					<dim>-1</dim>
					<dim>28</dim>
					<dim>28</dim>
				</port>
			</output>
		</layer>
		<layer id="66" name="onnx::Conv_1334" type="Const" version="opset1">
			<data element_type="f16" shape="24, 24, 1, 1" offset="6060" size="1152" />
			<output>
				<port id="0" precision="FP16" names="onnx::Conv_1334">
					<dim>24</dim>
					<dim>24</dim>
					<dim>1</dim>
					<dim>1</dim>
				</port>
			</output>
		</layer>
		<layer id="67" name="/stage2/stage2.1/branch2/branch2.0/Conv/WithoutBiases" type="Convolution" version="opset1">
			<data strides="1, 1" dilations="1, 1" pads_begin="0, 0" pads_end="0, 0" auto_pad="explicit" />
			<input>
				<port id="0" precision="FP16">
					<dim>-1</dim>
					<dim>-1</dim>
					<dim>28</dim>
					<dim>28</dim>
				</port>
				<port id="1" precision="FP16">
					<dim>24</dim>
					<dim>24</dim>
					<dim>1</dim>
					<dim>1</dim>
				</port>
			</input>
			<output>
				<port id="2" precision="FP16">
					<dim>-1</dim>
					<dim>24</dim>
					<dim>28</dim>
					<dim>28</dim>
				</port>
			</output>
		</layer>
		<layer id="68" name="Reshape_624" type="Const" version="opset1">
			<data element_type="f16" shape="1, 24, 1, 1" offset="7212" size="48" />
			<output>
				<port id="0" precision="FP16">
					<dim>1</dim>
					<dim>24</dim>
					<dim>1</dim>
					<dim>1</dim>
				</port>
			</output>
		</layer>
		<layer id="69" name="/stage2/stage2.1/branch2/branch2.0/Conv" type="Add" version="opset1">
			<data auto_broadcast="numpy" />
			<input>
				<port id="0" precision="FP16">
					<dim>-1</dim>
					<dim>24</dim>
					<dim>28</dim>
					<dim>28</dim>
				</port>
				<port id="1" precision="FP16">
					<dim>1</dim>
					<dim>24</dim>
					<dim>1</dim>
					<dim>1</dim>
				</port>
			</input>
			<output>
				<port id="2" precision="FP16" names="/stage2/stage2.1/branch2/branch2.0/Conv_output_0">
					<dim>-1</dim>
					<dim>24</dim>
					<dim>28</dim>
					<dim>28</dim>
				</port>
			</output>
		</layer>
		<layer id="70" name="/stage2/stage2.1/branch2/branch2.2/Relu" type="ReLU" version="opset1">
			<input>
				<port id="0" precision="FP16">
					<dim>-1</dim>
					<dim>24</dim>
					<dim>28</dim>
					<dim>28</dim>
				</port>
			</input>
			<output>
				<port id="1" precision="FP16" names="/stage2/stage2.1/branch2/branch2.2/Relu_output_0">
					<dim>-1</dim>
					<dim>24</dim>
					<dim>28</dim>
					<dim>28</dim>
				</port>
			</output>
		</layer>
		<layer id="71" name="Reshape_636" type="Const" version="opset1">
			<data element_type="f16" shape="24, 1, 1, 3, 3" offset="7260" size="432" />
			<output>
				<port id="0" precision="FP16">
					<dim>24</dim>
					<dim>1</dim>
					<dim>1</dim>
					<dim>3</dim>
					<dim>3</dim>
				</port>
			</output>
		</layer>
		<layer id="72" name="/stage2/stage2.1/branch2/branch2.3/Conv/WithoutBiases" type="GroupConvolution" version="opset1">
			<data strides="1, 1" pads_begin="1, 1" pads_end="1, 1" dilations="1, 1" auto_pad="explicit" />
			<input>
				<port id="0" precision="FP16">
					<dim>-1</dim>
					<dim>24</dim>
					<dim>28</dim>
					<dim>28</dim>
				</port>
				<port id="1" precision="FP16">
					<dim>24</dim>
					<dim>1</dim>
					<dim>1</dim>
					<dim>3</dim>
					<dim>3</dim>
				</port>
			</input>
			<output>
				<port id="2" precision="FP16">
					<dim>-1</dim>
					<dim>24</dim>
					<dim>28</dim>
					<dim>28</dim>
				</port>
			</output>
		</layer>
		<layer id="73" name="Reshape_688" type="Const" version="opset1">
			<data element_type="f16" shape="1, 24, 1, 1" offset="7692" size="48" />
			<output>
				<port id="0" precision="FP16">
					<dim>1</dim>
					<dim>24</dim>
					<dim>1</dim>
					<dim>1</dim>
				</port>
			</output>
		</layer>
		<layer id="74" name="/stage2/stage2.1/branch2/branch2.3/Conv" type="Add" version="opset1">
			<data auto_broadcast="numpy" />
			<input>
				<port id="0" precision="FP16">
					<dim>-1</dim>
					<dim>24</dim>
					<dim>28</dim>
					<dim>28</dim>
				</port>
				<port id="1" precision="FP16">
					<dim>1</dim>
					<dim>24</dim>
					<dim>1</dim>
					<dim>1</dim>
				</port>
			</input>
			<output>
				<port id="2" precision="FP16" names="/stage2/stage2.1/branch2/branch2.3/Conv_output_0">
					<dim>-1</dim>
					<dim>24</dim>
					<dim>28</dim>
					<dim>28</dim>
				</port>
			</output>
		</layer>
		<layer id="75" name="onnx::Conv_1340" type="Const" version="opset1">
			<data element_type="f16" shape="24, 24, 1, 1" offset="7740" size="1152" />
			<output>
				<port id="0" precision="FP16" names="onnx::Conv_1340">
					<dim>24</dim>
					<dim>24</dim>
					<dim>1</dim>
					<dim>1</dim>
				</port>
			</output>
		</layer>
		<layer id="76" name="/stage2/stage2.1/branch2/branch2.5/Conv/WithoutBiases" type="Convolution" version="opset1">
			<data strides="1, 1" dilations="1, 1" pads_begin="0, 0" pads_end="0, 0" auto_pad="explicit" />
			<input>
				<port id="0" precision="FP16">
					<dim>-1</dim>
					<dim>24</dim>
					<dim>28</dim>
					<dim>28</dim>
				</port>
				<port id="1" precision="FP16">
					<dim>24</dim>
					<dim>24</dim>
					<dim>1</dim>
					<dim>1</dim>
				</port>
			</input>
			<output>
				<port id="2" precision="FP16">
					<dim>-1</dim>
					<dim>24</dim>
					<dim>28</dim>
					<dim>28</dim>
				</port>
			</output>
		</layer>
		<layer id="77" name="Reshape_703" type="Const" version="opset1">
			<data element_type="f16" shape="1, 24, 1, 1" offset="8892" size="48" />
			<output>
				<port id="0" precision="FP16">
					<dim>1</dim>
					<dim>24</dim>
					<dim>1</dim>
					<dim>1</dim>
				</port>
			</output>
		</layer>
		<layer id="78" name="/stage2/stage2.1/branch2/branch2.5/Conv" type="Add" version="opset1">
			<data auto_broadcast="numpy" />
			<input>
				<port id="0" precision="FP16">
					<dim>-1</dim>
					<dim>24</dim>
					<dim>28</dim>
					<dim>28</dim>
				</port>
				<port id="1" precision="FP16">
					<dim>1</dim>
					<dim>24</dim>
					<dim>1</dim>
					<dim>1</dim>
				</port>
			</input>
			<output>
				<port id="2" precision="FP16" names="/stage2/stage2.1/branch2/branch2.5/Conv_output_0">
					<dim>-1</dim>
					<dim>24</dim>
					<dim>28</dim>
					<dim>28</dim>
				</port>
			</output>
		</layer>
		<layer id="79" name="/stage2/stage2.1/branch2/branch2.7/Relu" type="ReLU" version="opset1">
			<input>
				<port id="0" precision="FP16">
					<dim>-1</dim>
					<dim>24</dim>
					<dim>28</dim>
					<dim>28</dim>
				</port>
			</input>
			<output>
				<port id="1" precision="FP16" names="/stage2/stage2.1/branch2/branch2.7/Relu_output_0">
					<dim>-1</dim>
					<dim>24</dim>
					<dim>28</dim>
					<dim>28</dim>
				</port>
			</output>
		</layer>
		<layer id="80" name="/stage2/stage2.1/Concat" type="Concat" version="opset1">
			<data axis="1" />
			<input>
				<port id="0" precision="FP16">
					<dim>-1</dim>
					<dim>-1</dim>
					<dim>28</dim>
					<dim>28</dim>
				</port>
				<port id="1" precision="FP16">
					<dim>-1</dim>
					<dim>24</dim>
					<dim>28</dim>
					<dim>28</dim>
				</port>
			</input>
			<output>
				<port id="2" precision="FP16" names="/stage2/stage2.1/Concat_output_0">
					<dim>-1</dim>
					<dim>-1</dim>
					<dim>28</dim>
					<dim>28</dim>
				</port>
			</output>
		</layer>
		<layer id="81" name="Constant_27534" type="Const" version="opset1">
			<data element_type="i64" shape="1" offset="5984" size="8" />
			<output>
				<port id="0" precision="I64">
					<dim>1</dim>
				</port>
			</output>
		</layer>
		<layer id="82" name="/stage2/stage2.1/Shape_1" type="ShapeOf" version="opset3">
			<data output_type="i64" />
			<input>
				<port id="0" precision="FP16">
					<dim>-1</dim>
					<dim>-1</dim>
					<dim>28</dim>
					<dim>28</dim>
				</port>
			</input>
			<output>
				<port id="1" precision="I64" names="/stage2/stage2.1/Shape_1_output_0">
					<dim>4</dim>
				</port>
			</output>
		</layer>
		<layer id="83" name="/stage2/stage2.0/Constant_1_output_0" type="Const" version="opset1">
			<data element_type="i64" shape="" offset="6024" size="8" />
			<output>
				<port id="0" precision="I64" names="/stage2/stage2.0/Constant_1_output_0" />
			</output>
		</layer>
		<layer id="84" name="Constant_712" type="Const" version="opset1">
			<data element_type="i64" shape="" offset="5984" size="8" />
			<output>
				<port id="0" precision="I64" />
			</output>
		</layer>
		<layer id="85" name="/stage2/stage2.1/Gather_2" type="Gather" version="opset8">
			<data batch_dims="0" />
			<input>
				<port id="0" precision="I64">
					<dim>4</dim>
				</port>
				<port id="1" precision="I64" />
				<port id="2" precision="I64" />
			</input>
			<output>
				<port id="3" precision="I64" names="/stage2/stage2.1/Gather_2_output_0" />
			</output>
		</layer>
		<layer id="86" name="/stage2/stage2.0/Constant_2_output_0" type="Const" version="opset1">
			<data element_type="i64" shape="" offset="6032" size="8" />
			<output>
				<port id="0" precision="I64" names="/stage2/stage2.0/Constant_2_output_0" />
			</output>
		</layer>
		<layer id="87" name="/stage2/stage2.1/Div_1" type="Divide" version="opset1">
			<data auto_broadcast="numpy" m_pythondiv="true" />
			<input>
				<port id="0" precision="I64" />
				<port id="1" precision="I64" />
			</input>
			<output>
				<port id="2" precision="I64" names="/stage2/stage2.1/Div_1_output_0" />
			</output>
		</layer>
		<layer id="88" name="onnx::Unsqueeze_374" type="Const" version="opset1">
			<data element_type="i64" shape="1" offset="5984" size="8" />
			<output>
				<port id="0" precision="I64" names="onnx::Unsqueeze_374">
					<dim>1</dim>
				</port>
			</output>
		</layer>
		<layer id="89" name="/stage2/stage2.1/Unsqueeze_1" type="Unsqueeze" version="opset1">
			<input>
				<port id="0" precision="I64" />
				<port id="1" precision="I64">
					<dim>1</dim>
				</port>
			</input>
			<output>
				<port id="2" precision="I64" names="/stage2/stage2.1/Unsqueeze_1_output_0">
					<dim>1</dim>
				</port>
			</output>
		</layer>
		<layer id="90" name="Constant_23273" type="Const" version="opset1">
			<data element_type="i64" shape="2" offset="8940" size="16" />
			<output>
				<port id="0" precision="I64">
					<dim>2</dim>
				</port>
			</output>
		</layer>
		<layer id="91" name="Constant_23274" type="Const" version="opset1">
			<data element_type="i64" shape="" offset="5984" size="8" />
			<output>
				<port id="0" precision="I64" />
			</output>
		</layer>
		<layer id="92" name="Gather_23275" type="Gather" version="opset8">
			<data batch_dims="0" />
			<input>
				<port id="0" precision="I64">
					<dim>4</dim>
				</port>
				<port id="1" precision="I64">
					<dim>2</dim>
				</port>
				<port id="2" precision="I64" />
			</input>
			<output>
				<port id="3" precision="I64">
					<dim>2</dim>
				</port>
			</output>
		</layer>
		<layer id="93" name="/stage2/stage2.1/Concat_1" type="Concat" version="opset1">
			<data axis="0" />
			<input>
				<port id="0" precision="I64">
					<dim>1</dim>
				</port>
				<port id="1" precision="I64">
					<dim>1</dim>
				</port>
				<port id="2" precision="I64">
					<dim>1</dim>
				</port>
				<port id="3" precision="I64">
					<dim>2</dim>
				</port>
			</input>
			<output>
				<port id="4" precision="I64">
					<dim>5</dim>
				</port>
			</output>
		</layer>
		<layer id="94" name="/stage2/stage2.1/Reshape" type="Reshape" version="opset1">
			<data special_zero="true" />
			<input>
				<port id="0" precision="FP16">
					<dim>-1</dim>
					<dim>-1</dim>
					<dim>28</dim>
					<dim>28</dim>
				</port>
				<port id="1" precision="I64">
					<dim>5</dim>
				</port>
			</input>
			<output>
				<port id="2" precision="FP16" names="/stage2/stage2.1/Reshape_output_0">
					<dim>-1</dim>
					<dim>2</dim>
					<dim>-1</dim>
					<dim>28</dim>
					<dim>28</dim>
				</port>
			</output>
		</layer>
		<layer id="95" name="Constant_769" type="Const" version="opset1">
			<data element_type="i64" shape="5" offset="5944" size="40" />
			<output>
				<port id="0" precision="I64">
					<dim>5</dim>
				</port>
			</output>
		</layer>
		<layer id="96" name="/stage2/stage2.1/Transpose" type="Transpose" version="opset1">
			<input>
				<port id="0" precision="FP16">
					<dim>-1</dim>
					<dim>2</dim>
					<dim>-1</dim>
					<dim>28</dim>
					<dim>28</dim>
				</port>
				<port id="1" precision="I64">
					<dim>5</dim>
				</port>
			</input>
			<output>
				<port id="2" precision="FP16" names="/stage2/stage2.1/Transpose_output_0">
					<dim>-1</dim>
					<dim>-1</dim>
					<dim>2</dim>
					<dim>28</dim>
					<dim>28</dim>
				</port>
			</output>
		</layer>
		<layer id="97" name="Constant_23006" type="Const" version="opset1">
			<data element_type="i64" shape="1" offset="5984" size="8" />
			<output>
				<port id="0" precision="I64">
					<dim>1</dim>
				</port>
			</output>
		</layer>
		<layer id="98" name="Constant_710" type="Const" version="opset1">
			<data element_type="i64" shape="" offset="5984" size="8" />
			<output>
				<port id="0" precision="I64" />
			</output>
		</layer>
		<layer id="99" name="/stage2/stage2.1/Gather_1" type="Gather" version="opset8">
			<data batch_dims="0" />
			<input>
				<port id="0" precision="I64">
					<dim>4</dim>
				</port>
				<port id="1" precision="I64">
					<dim>1</dim>
				</port>
				<port id="2" precision="I64" />
			</input>
			<output>
				<port id="3" precision="I64" names="/stage2/stage2.1/Unsqueeze_output_0">
					<dim>1</dim>
				</port>
			</output>
		</layer>
		<layer id="100" name="Constant_23278" type="Const" version="opset1">
			<data element_type="i64" shape="2" offset="8940" size="16" />
			<output>
				<port id="0" precision="I64">
					<dim>2</dim>
				</port>
			</output>
		</layer>
		<layer id="101" name="Constant_23279" type="Const" version="opset1">
			<data element_type="i64" shape="" offset="5984" size="8" />
			<output>
				<port id="0" precision="I64" />
			</output>
		</layer>
		<layer id="102" name="Gather_23280" type="Gather" version="opset8">
			<data batch_dims="0" />
			<input>
				<port id="0" precision="I64">
					<dim>4</dim>
				</port>
				<port id="1" precision="I64">
					<dim>2</dim>
				</port>
				<port id="2" precision="I64" />
			</input>
			<output>
				<port id="3" precision="I64">
					<dim>2</dim>
				</port>
			</output>
		</layer>
		<layer id="103" name="/stage2/stage2.1/Concat_2" type="Concat" version="opset1">
			<data axis="0" />
			<input>
				<port id="0" precision="I64">
					<dim>1</dim>
				</port>
				<port id="1" precision="I64">
					<dim>1</dim>
				</port>
				<port id="2" precision="I64">
					<dim>2</dim>
				</port>
			</input>
			<output>
				<port id="3" precision="I64" names="/stage2/stage2.1/Concat_2_output_0">
					<dim>4</dim>
				</port>
			</output>
		</layer>
		<layer id="104" name="/stage2/stage2.1/Reshape_1" type="Reshape" version="opset1">
			<data special_zero="true" />
			<input>
				<port id="0" precision="FP16">
					<dim>-1</dim>
					<dim>-1</dim>
					<dim>2</dim>
					<dim>28</dim>
					<dim>28</dim>
				</port>
				<port id="1" precision="I64">
					<dim>4</dim>
				</port>
			</input>
			<output>
				<port id="2" precision="FP16" names="/stage2/stage2.1/Reshape_1_output_0">
					<dim>-1</dim>
					<dim>-1</dim>
					<dim>28</dim>
					<dim>28</dim>
				</port>
			</output>
		</layer>
		<layer id="105" name="Constant_32733" type="Const" version="opset1">
			<data element_type="i64" shape="2" offset="6008" size="16" />
			<output>
				<port id="0" precision="I64">
					<dim>2</dim>
				</port>
			</output>
		</layer>
		<layer id="106" name="Constant_32734" type="Const" version="opset1">
			<data element_type="i64" shape="2" offset="6008" size="16" />
			<output>
				<port id="0" precision="I64">
					<dim>2</dim>
				</port>
			</output>
		</layer>
		<layer id="107" name="Constant_32730" type="Const" version="opset1">
			<data element_type="i64" shape="1" offset="6024" size="8" />
			<output>
				<port id="0" precision="I64">
					<dim>1</dim>
				</port>
			</output>
		</layer>
		<layer id="108" name="/stage2/stage2.2/Shape" type="ShapeOf" version="opset3">
			<data output_type="i64" />
			<input>
				<port id="0" precision="FP16">
					<dim>-1</dim>
					<dim>-1</dim>
					<dim>28</dim>
					<dim>28</dim>
				</port>
			</input>
			<output>
				<port id="1" precision="I64" names="/stage2/stage2.2/Shape_output_0">
					<dim>4</dim>
				</port>
			</output>
		</layer>
		<layer id="109" name="Constant_780" type="Const" version="opset1">
			<data element_type="i64" shape="" offset="5984" size="8" />
			<output>
				<port id="0" precision="I64" />
			</output>
		</layer>
		<layer id="110" name="/stage2/stage2.2/Gather" type="Gather" version="opset8">
			<data batch_dims="0" />
			<input>
				<port id="0" precision="I64">
					<dim>4</dim>
				</port>
				<port id="1" precision="I64">
					<dim>1</dim>
				</port>
				<port id="2" precision="I64" />
			</input>
			<output>
				<port id="3" precision="I64" names="/stage2/stage2.2/Gather_output_0">
					<dim>1</dim>
				</port>
			</output>
		</layer>
		<layer id="111" name="/stage2/stage2.2/Add" type="Add" version="opset1">
			<data auto_broadcast="numpy" />
			<input>
				<port id="0" precision="I64">
					<dim>1</dim>
				</port>
				<port id="1" precision="I64">
					<dim>1</dim>
				</port>
			</input>
			<output>
				<port id="2" precision="I64" names="/stage2/stage2.2/Add_output_0">
					<dim>1</dim>
				</port>
			</output>
		</layer>
		<layer id="112" name="/stage2/stage2.2/Div" type="Divide" version="opset1">
			<data auto_broadcast="numpy" m_pythondiv="true" />
			<input>
				<port id="0" precision="I64">
					<dim>1</dim>
				</port>
				<port id="1" precision="I64">
					<dim>1</dim>
				</port>
			</input>
			<output>
				<port id="2" precision="I64" names="/stage2/stage2.2/Div_output_0">
					<dim>1</dim>
				</port>
			</output>
		</layer>
		<layer id="113" name="Constant_32729" type="Const" version="opset1">
			<data element_type="i32" shape="1" offset="6040" size="4" />
			<output>
				<port id="0" precision="I32">
					<dim>1</dim>
				</port>
			</output>
		</layer>
		<layer id="114" name="ScatterUpdate_32735" type="ScatterUpdate" version="opset3">
			<input>
				<port id="0" precision="I64">
					<dim>2</dim>
				</port>
				<port id="1" precision="I64">
					<dim>1</dim>
				</port>
				<port id="2" precision="I64">
					<dim>1</dim>
				</port>
				<port id="3" precision="I32">
					<dim>1</dim>
				</port>
			</input>
			<output>
				<port id="4" precision="I64">
					<dim>2</dim>
				</port>
			</output>
		</layer>
		<layer id="115" name="Constant_32738" type="Const" version="opset1">
			<data element_type="i64" shape="2" offset="6044" size="16" />
			<output>
				<port id="0" precision="I64">
					<dim>2</dim>
				</port>
			</output>
		</layer>
		<layer id="116" name="/stage2/stage2.2/Slice" type="StridedSlice" version="opset1">
			<data begin_mask="1, 0" end_mask="1, 0" new_axis_mask="" shrink_axis_mask="" ellipsis_mask="" />
			<input>
				<port id="0" precision="FP16">
					<dim>-1</dim>
					<dim>-1</dim>
					<dim>28</dim>
					<dim>28</dim>
				</port>
				<port id="1" precision="I64">
					<dim>2</dim>
				</port>
				<port id="2" precision="I64">
					<dim>2</dim>
				</port>
				<port id="3" precision="I64">
					<dim>2</dim>
				</port>
			</input>
			<output>
				<port id="4" precision="FP16" names="/stage2/stage2.2/Slice_output_0">
					<dim>-1</dim>
					<dim>-1</dim>
					<dim>28</dim>
					<dim>28</dim>
				</port>
			</output>
		</layer>
		<layer id="117" name="Constant_32842" type="Const" version="opset1">
			<data element_type="i64" shape="2" offset="6008" size="16" />
			<output>
				<port id="0" precision="I64">
					<dim>2</dim>
				</port>
			</output>
		</layer>
		<layer id="118" name="Constant_32841" type="Const" version="opset1">
			<data element_type="i64" shape="1" offset="6024" size="8" />
			<output>
				<port id="0" precision="I64">
					<dim>1</dim>
				</port>
			</output>
		</layer>
		<layer id="119" name="Constant_32840" type="Const" version="opset1">
			<data element_type="i32" shape="1" offset="6040" size="4" />
			<output>
				<port id="0" precision="I32">
					<dim>1</dim>
				</port>
			</output>
		</layer>
		<layer id="120" name="ScatterUpdate_32843" type="ScatterUpdate" version="opset3">
			<input>
				<port id="0" precision="I64">
					<dim>2</dim>
				</port>
				<port id="1" precision="I64">
					<dim>1</dim>
				</port>
				<port id="2" precision="I64">
					<dim>1</dim>
				</port>
				<port id="3" precision="I32">
					<dim>1</dim>
				</port>
			</input>
			<output>
				<port id="4" precision="I64">
					<dim>2</dim>
				</port>
			</output>
		</layer>
		<layer id="121" name="Constant_32844" type="Const" version="opset1">
			<data element_type="i64" shape="2" offset="6008" size="16" />
			<output>
				<port id="0" precision="I64">
					<dim>2</dim>
				</port>
			</output>
		</layer>
		<layer id="122" name="/stage2/stage2.2/Mul_1" type="Multiply" version="opset1">
			<data auto_broadcast="numpy" />
			<input>
				<port id="0" precision="I64">
					<dim>1</dim>
				</port>
				<port id="1" precision="I64">
					<dim>1</dim>
				</port>
			</input>
			<output>
				<port id="2" precision="I64" names="/stage2/stage2.2/Mul_1_output_0">
					<dim>1</dim>
				</port>
			</output>
		</layer>
		<layer id="123" name="ScatterUpdate_32845" type="ScatterUpdate" version="opset3">
			<input>
				<port id="0" precision="I64">
					<dim>2</dim>
				</port>
				<port id="1" precision="I64">
					<dim>1</dim>
				</port>
				<port id="2" precision="I64">
					<dim>1</dim>
				</port>
				<port id="3" precision="I32">
					<dim>1</dim>
				</port>
			</input>
			<output>
				<port id="4" precision="I64">
					<dim>2</dim>
				</port>
			</output>
		</layer>
		<layer id="124" name="Constant_32848" type="Const" version="opset1">
			<data element_type="i64" shape="2" offset="6044" size="16" />
			<output>
				<port id="0" precision="I64">
					<dim>2</dim>
				</port>
			</output>
		</layer>
		<layer id="125" name="/stage2/stage2.2/Slice_1" type="StridedSlice" version="opset1">
			<data begin_mask="1, 0" end_mask="1, 0" new_axis_mask="" shrink_axis_mask="" ellipsis_mask="" />
			<input>
				<port id="0" precision="FP16">
					<dim>-1</dim>
					<dim>-1</dim>
					<dim>28</dim>
					<dim>28</dim>
				</port>
				<port id="1" precision="I64">
					<dim>2</dim>
				</port>
				<port id="2" precision="I64">
					<dim>2</dim>
				</port>
				<port id="3" precision="I64">
					<dim>2</dim>
				</port>
			</input>
			<output>
				<port id="4" precision="FP16" names="/stage2/stage2.2/Slice_1_output_0">
					<dim>-1</dim>
					<dim>-1</dim>
					<dim>28</dim>
					<dim>28</dim>
				</port>
			</output>
		</layer>
		<layer id="126" name="onnx::Conv_1343" type="Const" version="opset1">
			<data element_type="f16" shape="24, 24, 1, 1" offset="8956" size="1152" />
			<output>
				<port id="0" precision="FP16" names="onnx::Conv_1343">
					<dim>24</dim>
					<dim>24</dim>
					<dim>1</dim>
					<dim>1</dim>
				</port>
			</output>
		</layer>
		<layer id="127" name="/stage2/stage2.2/branch2/branch2.0/Conv/WithoutBiases" type="Convolution" version="opset1">
			<data strides="1, 1" dilations="1, 1" pads_begin="0, 0" pads_end="0, 0" auto_pad="explicit" />
			<input>
				<port id="0" precision="FP16">
					<dim>-1</dim>
					<dim>-1</dim>
					<dim>28</dim>
					<dim>28</dim>
				</port>
				<port id="1" precision="FP16">
					<dim>24</dim>
					<dim>24</dim>
					<dim>1</dim>
					<dim>1</dim>
				</port>
			</input>
			<output>
				<port id="2" precision="FP16">
					<dim>-1</dim>
					<dim>24</dim>
					<dim>28</dim>
					<dim>28</dim>
				</port>
			</output>
		</layer>
		<layer id="128" name="Reshape_1068" type="Const" version="opset1">
			<data element_type="f16" shape="1, 24, 1, 1" offset="10108" size="48" />
			<output>
				<port id="0" precision="FP16">
					<dim>1</dim>
					<dim>24</dim>
					<dim>1</dim>
					<dim>1</dim>
				</port>
			</output>
		</layer>
		<layer id="129" name="/stage2/stage2.2/branch2/branch2.0/Conv" type="Add" version="opset1">
			<data auto_broadcast="numpy" />
			<input>
				<port id="0" precision="FP16">
					<dim>-1</dim>
					<dim>24</dim>
					<dim>28</dim>
					<dim>28</dim>
				</port>
				<port id="1" precision="FP16">
					<dim>1</dim>
					<dim>24</dim>
					<dim>1</dim>
					<dim>1</dim>
				</port>
			</input>
			<output>
				<port id="2" precision="FP16" names="/stage2/stage2.2/branch2/branch2.0/Conv_output_0">
					<dim>-1</dim>
					<dim>24</dim>
					<dim>28</dim>
					<dim>28</dim>
				</port>
			</output>
		</layer>
		<layer id="130" name="/stage2/stage2.2/branch2/branch2.2/Relu" type="ReLU" version="opset1">
			<input>
				<port id="0" precision="FP16">
					<dim>-1</dim>
					<dim>24</dim>
					<dim>28</dim>
					<dim>28</dim>
				</port>
			</input>
			<output>
				<port id="1" precision="FP16" names="/stage2/stage2.2/branch2/branch2.2/Relu_output_0">
					<dim>-1</dim>
					<dim>24</dim>
					<dim>28</dim>
					<dim>28</dim>
				</port>
			</output>
		</layer>
		<layer id="131" name="Reshape_1080" type="Const" version="opset1">
			<data element_type="f16" shape="24, 1, 1, 3, 3" offset="10156" size="432" />
			<output>
				<port id="0" precision="FP16">
					<dim>24</dim>
					<dim>1</dim>
					<dim>1</dim>
					<dim>3</dim>
					<dim>3</dim>
				</port>
			</output>
		</layer>
		<layer id="132" name="/stage2/stage2.2/branch2/branch2.3/Conv/WithoutBiases" type="GroupConvolution" version="opset1">
			<data strides="1, 1" pads_begin="1, 1" pads_end="1, 1" dilations="1, 1" auto_pad="explicit" />
			<input>
				<port id="0" precision="FP16">
					<dim>-1</dim>
					<dim>24</dim>
					<dim>28</dim>
					<dim>28</dim>
				</port>
				<port id="1" precision="FP16">
					<dim>24</dim>
					<dim>1</dim>
					<dim>1</dim>
					<dim>3</dim>
					<dim>3</dim>
				</port>
			</input>
			<output>
				<port id="2" precision="FP16">
					<dim>-1</dim>
					<dim>24</dim>
					<dim>28</dim>
					<dim>28</dim>
				</port>
			</output>
		</layer>
		<layer id="133" name="Reshape_1132" type="Const" version="opset1">
			<data element_type="f16" shape="1, 24, 1, 1" offset="10588" size="48" />
			<output>
				<port id="0" precision="FP16">
					<dim>1</dim>
					<dim>24</dim>
					<dim>1</dim>
					<dim>1</dim>
				</port>
			</output>
		</layer>
		<layer id="134" name="/stage2/stage2.2/branch2/branch2.3/Conv" type="Add" version="opset1">
			<data auto_broadcast="numpy" />
			<input>
				<port id="0" precision="FP16">
					<dim>-1</dim>
					<dim>24</dim>
					<dim>28</dim>
					<dim>28</dim>
				</port>
				<port id="1" precision="FP16">
					<dim>1</dim>
					<dim>24</dim>
					<dim>1</dim>
					<dim>1</dim>
				</port>
			</input>
			<output>
				<port id="2" precision="FP16" names="/stage2/stage2.2/branch2/branch2.3/Conv_output_0">
					<dim>-1</dim>
					<dim>24</dim>
					<dim>28</dim>
					<dim>28</dim>
				</port>
			</output>
		</layer>
		<layer id="135" name="onnx::Conv_1349" type="Const" version="opset1">
			<data element_type="f16" shape="24, 24, 1, 1" offset="10636" size="1152" />
			<output>
				<port id="0" precision="FP16" names="onnx::Conv_1349">
					<dim>24</dim>
					<dim>24</dim>
					<dim>1</dim>
					<dim>1</dim>
				</port>
			</output>
		</layer>
		<layer id="136" name="/stage2/stage2.2/branch2/branch2.5/Conv/WithoutBiases" type="Convolution" version="opset1">
			<data strides="1, 1" dilations="1, 1" pads_begin="0, 0" pads_end="0, 0" auto_pad="explicit" />
			<input>
				<port id="0" precision="FP16">
					<dim>-1</dim>
					<dim>24</dim>
					<dim>28</dim>
					<dim>28</dim>
				</port>
				<port id="1" precision="FP16">
					<dim>24</dim>
					<dim>24</dim>
					<dim>1</dim>
					<dim>1</dim>
				</port>
			</input>
			<output>
				<port id="2" precision="FP16">
					<dim>-1</dim>
					<dim>24</dim>
					<dim>28</dim>
					<dim>28</dim>
				</port>
			</output>
		</layer>
		<layer id="137" name="Reshape_1147" type="Const" version="opset1">
			<data element_type="f16" shape="1, 24, 1, 1" offset="11788" size="48" />
			<output>
				<port id="0" precision="FP16">
					<dim>1</dim>
					<dim>24</dim>
					<dim>1</dim>
					<dim>1</dim>
				</port>
			</output>
		</layer>
		<layer id="138" name="/stage2/stage2.2/branch2/branch2.5/Conv" type="Add" version="opset1">
			<data auto_broadcast="numpy" />
			<input>
				<port id="0" precision="FP16">
					<dim>-1</dim>
					<dim>24</dim>
					<dim>28</dim>
					<dim>28</dim>
				</port>
				<port id="1" precision="FP16">
					<dim>1</dim>
					<dim>24</dim>
					<dim>1</dim>
					<dim>1</dim>
				</port>
			</input>
			<output>
				<port id="2" precision="FP16" names="/stage2/stage2.2/branch2/branch2.5/Conv_output_0">
					<dim>-1</dim>
					<dim>24</dim>
					<dim>28</dim>
					<dim>28</dim>
				</port>
			</output>
		</layer>
		<layer id="139" name="/stage2/stage2.2/branch2/branch2.7/Relu" type="ReLU" version="opset1">
			<input>
				<port id="0" precision="FP16">
					<dim>-1</dim>
					<dim>24</dim>
					<dim>28</dim>
					<dim>28</dim>
				</port>
			</input>
			<output>
				<port id="1" precision="FP16" names="/stage2/stage2.2/branch2/branch2.7/Relu_output_0">
					<dim>-1</dim>
					<dim>24</dim>
					<dim>28</dim>
					<dim>28</dim>
				</port>
			</output>
		</layer>
		<layer id="140" name="/stage2/stage2.2/Concat" type="Concat" version="opset1">
			<data axis="1" />
			<input>
				<port id="0" precision="FP16">
					<dim>-1</dim>
					<dim>-1</dim>
					<dim>28</dim>
					<dim>28</dim>
				</port>
				<port id="1" precision="FP16">
					<dim>-1</dim>
					<dim>24</dim>
					<dim>28</dim>
					<dim>28</dim>
				</port>
			</input>
			<output>
				<port id="2" precision="FP16" names="/stage2/stage2.2/Concat_output_0">
					<dim>-1</dim>
					<dim>-1</dim>
					<dim>28</dim>
					<dim>28</dim>
				</port>
			</output>
		</layer>
		<layer id="141" name="Constant_27581" type="Const" version="opset1">
			<data element_type="i64" shape="1" offset="5984" size="8" />
			<output>
				<port id="0" precision="I64">
					<dim>1</dim>
				</port>
			</output>
		</layer>
		<layer id="142" name="/stage2/stage2.2/Shape_1" type="ShapeOf" version="opset3">
			<data output_type="i64" />
			<input>
				<port id="0" precision="FP16">
					<dim>-1</dim>
					<dim>-1</dim>
					<dim>28</dim>
					<dim>28</dim>
				</port>
			</input>
			<output>
				<port id="1" precision="I64" names="/stage2/stage2.2/Shape_1_output_0">
					<dim>4</dim>
				</port>
			</output>
		</layer>
		<layer id="143" name="Constant_1156" type="Const" version="opset1">
			<data element_type="i64" shape="" offset="5984" size="8" />
			<output>
				<port id="0" precision="I64" />
			</output>
		</layer>
		<layer id="144" name="/stage2/stage2.2/Gather_2" type="Gather" version="opset8">
			<data batch_dims="0" />
			<input>
				<port id="0" precision="I64">
					<dim>4</dim>
				</port>
				<port id="1" precision="I64" />
				<port id="2" precision="I64" />
			</input>
			<output>
				<port id="3" precision="I64" names="/stage2/stage2.2/Gather_2_output_0" />
			</output>
		</layer>
		<layer id="145" name="/stage2/stage2.2/Div_1" type="Divide" version="opset1">
			<data auto_broadcast="numpy" m_pythondiv="true" />
			<input>
				<port id="0" precision="I64" />
				<port id="1" precision="I64" />
			</input>
			<output>
				<port id="2" precision="I64" names="/stage2/stage2.2/Div_1_output_0" />
			</output>
		</layer>
		<layer id="146" name="/stage2/stage2.2/Unsqueeze_1" type="Unsqueeze" version="opset1">
			<input>
				<port id="0" precision="I64" />
				<port id="1" precision="I64">
					<dim>1</dim>
				</port>
			</input>
			<output>
				<port id="2" precision="I64" names="/stage2/stage2.2/Unsqueeze_1_output_0">
					<dim>1</dim>
				</port>
			</output>
		</layer>
		<layer id="147" name="Constant_23283" type="Const" version="opset1">
			<data element_type="i64" shape="2" offset="8940" size="16" />
			<output>
				<port id="0" precision="I64">
					<dim>2</dim>
				</port>
			</output>
		</layer>
		<layer id="148" name="Constant_23284" type="Const" version="opset1">
			<data element_type="i64" shape="" offset="5984" size="8" />
			<output>
				<port id="0" precision="I64" />
			</output>
		</layer>
		<layer id="149" name="Gather_23285" type="Gather" version="opset8">
			<data batch_dims="0" />
			<input>
				<port id="0" precision="I64">
					<dim>4</dim>
				</port>
				<port id="1" precision="I64">
					<dim>2</dim>
				</port>
				<port id="2" precision="I64" />
			</input>
			<output>
				<port id="3" precision="I64">
					<dim>2</dim>
				</port>
			</output>
		</layer>
		<layer id="150" name="/stage2/stage2.2/Concat_1" type="Concat" version="opset1">
			<data axis="0" />
			<input>
				<port id="0" precision="I64">
					<dim>1</dim>
				</port>
				<port id="1" precision="I64">
					<dim>1</dim>
				</port>
				<port id="2" precision="I64">
					<dim>1</dim>
				</port>
				<port id="3" precision="I64">
					<dim>2</dim>
				</port>
			</input>
			<output>
				<port id="4" precision="I64">
					<dim>5</dim>
				</port>
			</output>
		</layer>
		<layer id="151" name="/stage2/stage2.2/Reshape" type="Reshape" version="opset1">
			<data special_zero="true" />
			<input>
				<port id="0" precision="FP16">
					<dim>-1</dim>
					<dim>-1</dim>
					<dim>28</dim>
					<dim>28</dim>
				</port>
				<port id="1" precision="I64">
					<dim>5</dim>
				</port>
			</input>
			<output>
				<port id="2" precision="FP16" names="/stage2/stage2.2/Reshape_output_0">
					<dim>-1</dim>
					<dim>2</dim>
					<dim>-1</dim>
					<dim>28</dim>
					<dim>28</dim>
				</port>
			</output>
		</layer>
		<layer id="152" name="Constant_1213" type="Const" version="opset1">
			<data element_type="i64" shape="5" offset="5944" size="40" />
			<output>
				<port id="0" precision="I64">
					<dim>5</dim>
				</port>
			</output>
		</layer>
		<layer id="153" name="/stage2/stage2.2/Transpose" type="Transpose" version="opset1">
			<input>
				<port id="0" precision="FP16">
					<dim>-1</dim>
					<dim>2</dim>
					<dim>-1</dim>
					<dim>28</dim>
					<dim>28</dim>
				</port>
				<port id="1" precision="I64">
					<dim>5</dim>
				</port>
			</input>
			<output>
				<port id="2" precision="FP16" names="/stage2/stage2.2/Transpose_output_0">
					<dim>-1</dim>
					<dim>-1</dim>
					<dim>2</dim>
					<dim>28</dim>
					<dim>28</dim>
				</port>
			</output>
		</layer>
		<layer id="154" name="Constant_23024" type="Const" version="opset1">
			<data element_type="i64" shape="1" offset="5984" size="8" />
			<output>
				<port id="0" precision="I64">
					<dim>1</dim>
				</port>
			</output>
		</layer>
		<layer id="155" name="Constant_1154" type="Const" version="opset1">
			<data element_type="i64" shape="" offset="5984" size="8" />
			<output>
				<port id="0" precision="I64" />
			</output>
		</layer>
		<layer id="156" name="/stage2/stage2.2/Gather_1" type="Gather" version="opset8">
			<data batch_dims="0" />
			<input>
				<port id="0" precision="I64">
					<dim>4</dim>
				</port>
				<port id="1" precision="I64">
					<dim>1</dim>
				</port>
				<port id="2" precision="I64" />
			</input>
			<output>
				<port id="3" precision="I64" names="/stage2/stage2.2/Unsqueeze_output_0">
					<dim>1</dim>
				</port>
			</output>
		</layer>
		<layer id="157" name="Constant_23288" type="Const" version="opset1">
			<data element_type="i64" shape="2" offset="8940" size="16" />
			<output>
				<port id="0" precision="I64">
					<dim>2</dim>
				</port>
			</output>
		</layer>
		<layer id="158" name="Constant_23289" type="Const" version="opset1">
			<data element_type="i64" shape="" offset="5984" size="8" />
			<output>
				<port id="0" precision="I64" />
			</output>
		</layer>
		<layer id="159" name="Gather_23290" type="Gather" version="opset8">
			<data batch_dims="0" />
			<input>
				<port id="0" precision="I64">
					<dim>4</dim>
				</port>
				<port id="1" precision="I64">
					<dim>2</dim>
				</port>
				<port id="2" precision="I64" />
			</input>
			<output>
				<port id="3" precision="I64">
					<dim>2</dim>
				</port>
			</output>
		</layer>
		<layer id="160" name="/stage2/stage2.2/Concat_2" type="Concat" version="opset1">
			<data axis="0" />
			<input>
				<port id="0" precision="I64">
					<dim>1</dim>
				</port>
				<port id="1" precision="I64">
					<dim>1</dim>
				</port>
				<port id="2" precision="I64">
					<dim>2</dim>
				</port>
			</input>
			<output>
				<port id="3" precision="I64" names="/stage2/stage2.2/Concat_2_output_0">
					<dim>4</dim>
				</port>
			</output>
		</layer>
		<layer id="161" name="/stage2/stage2.2/Reshape_1" type="Reshape" version="opset1">
			<data special_zero="true" />
			<input>
				<port id="0" precision="FP16">
					<dim>-1</dim>
					<dim>-1</dim>
					<dim>2</dim>
					<dim>28</dim>
					<dim>28</dim>
				</port>
				<port id="1" precision="I64">
					<dim>4</dim>
				</port>
			</input>
			<output>
				<port id="2" precision="FP16" names="/stage2/stage2.2/Reshape_1_output_0">
					<dim>-1</dim>
					<dim>-1</dim>
					<dim>28</dim>
					<dim>28</dim>
				</port>
			</output>
		</layer>
		<layer id="162" name="Constant_33110" type="Const" version="opset1">
			<data element_type="i64" shape="2" offset="6008" size="16" />
			<output>
				<port id="0" precision="I64">
					<dim>2</dim>
				</port>
			</output>
		</layer>
		<layer id="163" name="Constant_33111" type="Const" version="opset1">
			<data element_type="i64" shape="2" offset="6008" size="16" />
			<output>
				<port id="0" precision="I64">
					<dim>2</dim>
				</port>
			</output>
		</layer>
		<layer id="164" name="Constant_33107" type="Const" version="opset1">
			<data element_type="i64" shape="1" offset="6024" size="8" />
			<output>
				<port id="0" precision="I64">
					<dim>1</dim>
				</port>
			</output>
		</layer>
		<layer id="165" name="/stage2/stage2.3/Shape" type="ShapeOf" version="opset3">
			<data output_type="i64" />
			<input>
				<port id="0" precision="FP16">
					<dim>-1</dim>
					<dim>-1</dim>
					<dim>28</dim>
					<dim>28</dim>
				</port>
			</input>
			<output>
				<port id="1" precision="I64" names="/stage2/stage2.3/Shape_output_0">
					<dim>4</dim>
				</port>
			</output>
		</layer>
		<layer id="166" name="Constant_1224" type="Const" version="opset1">
			<data element_type="i64" shape="" offset="5984" size="8" />
			<output>
				<port id="0" precision="I64" />
			</output>
		</layer>
		<layer id="167" name="/stage2/stage2.3/Gather" type="Gather" version="opset8">
			<data batch_dims="0" />
			<input>
				<port id="0" precision="I64">
					<dim>4</dim>
				</port>
				<port id="1" precision="I64">
					<dim>1</dim>
				</port>
				<port id="2" precision="I64" />
			</input>
			<output>
				<port id="3" precision="I64" names="/stage2/stage2.3/Gather_output_0">
					<dim>1</dim>
				</port>
			</output>
		</layer>
		<layer id="168" name="/stage2/stage2.3/Add" type="Add" version="opset1">
			<data auto_broadcast="numpy" />
			<input>
				<port id="0" precision="I64">
					<dim>1</dim>
				</port>
				<port id="1" precision="I64">
					<dim>1</dim>
				</port>
			</input>
			<output>
				<port id="2" precision="I64" names="/stage2/stage2.3/Add_output_0">
					<dim>1</dim>
				</port>
			</output>
		</layer>
		<layer id="169" name="/stage2/stage2.3/Div" type="Divide" version="opset1">
			<data auto_broadcast="numpy" m_pythondiv="true" />
			<input>
				<port id="0" precision="I64">
					<dim>1</dim>
				</port>
				<port id="1" precision="I64">
					<dim>1</dim>
				</port>
			</input>
			<output>
				<port id="2" precision="I64" names="/stage2/stage2.3/Div_output_0">
					<dim>1</dim>
				</port>
			</output>
		</layer>
		<layer id="170" name="Constant_33106" type="Const" version="opset1">
			<data element_type="i32" shape="1" offset="6040" size="4" />
			<output>
				<port id="0" precision="I32">
					<dim>1</dim>
				</port>
			</output>
		</layer>
		<layer id="171" name="ScatterUpdate_33112" type="ScatterUpdate" version="opset3">
			<input>
				<port id="0" precision="I64">
					<dim>2</dim>
				</port>
				<port id="1" precision="I64">
					<dim>1</dim>
				</port>
				<port id="2" precision="I64">
					<dim>1</dim>
				</port>
				<port id="3" precision="I32">
					<dim>1</dim>
				</port>
			</input>
			<output>
				<port id="4" precision="I64">
					<dim>2</dim>
				</port>
			</output>
		</layer>
		<layer id="172" name="Constant_33115" type="Const" version="opset1">
			<data element_type="i64" shape="2" offset="6044" size="16" />
			<output>
				<port id="0" precision="I64">
					<dim>2</dim>
				</port>
			</output>
		</layer>
		<layer id="173" name="/stage2/stage2.3/Slice" type="StridedSlice" version="opset1">
			<data begin_mask="1, 0" end_mask="1, 0" new_axis_mask="" shrink_axis_mask="" ellipsis_mask="" />
			<input>
				<port id="0" precision="FP16">
					<dim>-1</dim>
					<dim>-1</dim>
					<dim>28</dim>
					<dim>28</dim>
				</port>
				<port id="1" precision="I64">
					<dim>2</dim>
				</port>
				<port id="2" precision="I64">
					<dim>2</dim>
				</port>
				<port id="3" precision="I64">
					<dim>2</dim>
				</port>
			</input>
			<output>
				<port id="4" precision="FP16" names="/stage2/stage2.3/Slice_output_0">
					<dim>-1</dim>
					<dim>-1</dim>
					<dim>28</dim>
					<dim>28</dim>
				</port>
			</output>
		</layer>
		<layer id="174" name="Constant_33219" type="Const" version="opset1">
			<data element_type="i64" shape="2" offset="6008" size="16" />
			<output>
				<port id="0" precision="I64">
					<dim>2</dim>
				</port>
			</output>
		</layer>
		<layer id="175" name="Constant_33218" type="Const" version="opset1">
			<data element_type="i64" shape="1" offset="6024" size="8" />
			<output>
				<port id="0" precision="I64">
					<dim>1</dim>
				</port>
			</output>
		</layer>
		<layer id="176" name="Constant_33217" type="Const" version="opset1">
			<data element_type="i32" shape="1" offset="6040" size="4" />
			<output>
				<port id="0" precision="I32">
					<dim>1</dim>
				</port>
			</output>
		</layer>
		<layer id="177" name="ScatterUpdate_33220" type="ScatterUpdate" version="opset3">
			<input>
				<port id="0" precision="I64">
					<dim>2</dim>
				</port>
				<port id="1" precision="I64">
					<dim>1</dim>
				</port>
				<port id="2" precision="I64">
					<dim>1</dim>
				</port>
				<port id="3" precision="I32">
					<dim>1</dim>
				</port>
			</input>
			<output>
				<port id="4" precision="I64">
					<dim>2</dim>
				</port>
			</output>
		</layer>
		<layer id="178" name="Constant_33221" type="Const" version="opset1">
			<data element_type="i64" shape="2" offset="6008" size="16" />
			<output>
				<port id="0" precision="I64">
					<dim>2</dim>
				</port>
			</output>
		</layer>
		<layer id="179" name="/stage2/stage2.3/Mul_1" type="Multiply" version="opset1">
			<data auto_broadcast="numpy" />
			<input>
				<port id="0" precision="I64">
					<dim>1</dim>
				</port>
				<port id="1" precision="I64">
					<dim>1</dim>
				</port>
			</input>
			<output>
				<port id="2" precision="I64" names="/stage2/stage2.3/Mul_1_output_0">
					<dim>1</dim>
				</port>
			</output>
		</layer>
		<layer id="180" name="ScatterUpdate_33222" type="ScatterUpdate" version="opset3">
			<input>
				<port id="0" precision="I64">
					<dim>2</dim>
				</port>
				<port id="1" precision="I64">
					<dim>1</dim>
				</port>
				<port id="2" precision="I64">
					<dim>1</dim>
				</port>
				<port id="3" precision="I32">
					<dim>1</dim>
				</port>
			</input>
			<output>
				<port id="4" precision="I64">
					<dim>2</dim>
				</port>
			</output>
		</layer>
		<layer id="181" name="Constant_33225" type="Const" version="opset1">
			<data element_type="i64" shape="2" offset="6044" size="16" />
			<output>
				<port id="0" precision="I64">
					<dim>2</dim>
				</port>
			</output>
		</layer>
		<layer id="182" name="/stage2/stage2.3/Slice_1" type="StridedSlice" version="opset1">
			<data begin_mask="1, 0" end_mask="1, 0" new_axis_mask="" shrink_axis_mask="" ellipsis_mask="" />
			<input>
				<port id="0" precision="FP16">
					<dim>-1</dim>
					<dim>-1</dim>
					<dim>28</dim>
					<dim>28</dim>
				</port>
				<port id="1" precision="I64">
					<dim>2</dim>
				</port>
				<port id="2" precision="I64">
					<dim>2</dim>
				</port>
				<port id="3" precision="I64">
					<dim>2</dim>
				</port>
			</input>
			<output>
				<port id="4" precision="FP16" names="/stage2/stage2.3/Slice_1_output_0">
					<dim>-1</dim>
					<dim>-1</dim>
					<dim>28</dim>
					<dim>28</dim>
				</port>
			</output>
		</layer>
		<layer id="183" name="onnx::Conv_1352" type="Const" version="opset1">
			<data element_type="f16" shape="24, 24, 1, 1" offset="11836" size="1152" />
			<output>
				<port id="0" precision="FP16" names="onnx::Conv_1352">
					<dim>24</dim>
					<dim>24</dim>
					<dim>1</dim>
					<dim>1</dim>
				</port>
			</output>
		</layer>
		<layer id="184" name="/stage2/stage2.3/branch2/branch2.0/Conv/WithoutBiases" type="Convolution" version="opset1">
			<data strides="1, 1" dilations="1, 1" pads_begin="0, 0" pads_end="0, 0" auto_pad="explicit" />
			<input>
				<port id="0" precision="FP16">
					<dim>-1</dim>
					<dim>-1</dim>
					<dim>28</dim>
					<dim>28</dim>
				</port>
				<port id="1" precision="FP16">
					<dim>24</dim>
					<dim>24</dim>
					<dim>1</dim>
					<dim>1</dim>
				</port>
			</input>
			<output>
				<port id="2" precision="FP16">
					<dim>-1</dim>
					<dim>24</dim>
					<dim>28</dim>
					<dim>28</dim>
				</port>
			</output>
		</layer>
		<layer id="185" name="Reshape_1512" type="Const" version="opset1">
			<data element_type="f16" shape="1, 24, 1, 1" offset="12988" size="48" />
			<output>
				<port id="0" precision="FP16">
					<dim>1</dim>
					<dim>24</dim>
					<dim>1</dim>
					<dim>1</dim>
				</port>
			</output>
		</layer>
		<layer id="186" name="/stage2/stage2.3/branch2/branch2.0/Conv" type="Add" version="opset1">
			<data auto_broadcast="numpy" />
			<input>
				<port id="0" precision="FP16">
					<dim>-1</dim>
					<dim>24</dim>
					<dim>28</dim>
					<dim>28</dim>
				</port>
				<port id="1" precision="FP16">
					<dim>1</dim>
					<dim>24</dim>
					<dim>1</dim>
					<dim>1</dim>
				</port>
			</input>
			<output>
				<port id="2" precision="FP16" names="/stage2/stage2.3/branch2/branch2.0/Conv_output_0">
					<dim>-1</dim>
					<dim>24</dim>
					<dim>28</dim>
					<dim>28</dim>
				</port>
			</output>
		</layer>
		<layer id="187" name="/stage2/stage2.3/branch2/branch2.2/Relu" type="ReLU" version="opset1">
			<input>
				<port id="0" precision="FP16">
					<dim>-1</dim>
					<dim>24</dim>
					<dim>28</dim>
					<dim>28</dim>
				</port>
			</input>
			<output>
				<port id="1" precision="FP16" names="/stage2/stage2.3/branch2/branch2.2/Relu_output_0">
					<dim>-1</dim>
					<dim>24</dim>
					<dim>28</dim>
					<dim>28</dim>
				</port>
			</output>
		</layer>
		<layer id="188" name="Reshape_1524" type="Const" version="opset1">
			<data element_type="f16" shape="24, 1, 1, 3, 3" offset="13036" size="432" />
			<output>
				<port id="0" precision="FP16">
					<dim>24</dim>
					<dim>1</dim>
					<dim>1</dim>
					<dim>3</dim>
					<dim>3</dim>
				</port>
			</output>
		</layer>
		<layer id="189" name="/stage2/stage2.3/branch2/branch2.3/Conv/WithoutBiases" type="GroupConvolution" version="opset1">
			<data strides="1, 1" pads_begin="1, 1" pads_end="1, 1" dilations="1, 1" auto_pad="explicit" />
			<input>
				<port id="0" precision="FP16">
					<dim>-1</dim>
					<dim>24</dim>
					<dim>28</dim>
					<dim>28</dim>
				</port>
				<port id="1" precision="FP16">
					<dim>24</dim>
					<dim>1</dim>
					<dim>1</dim>
					<dim>3</dim>
					<dim>3</dim>
				</port>
			</input>
			<output>
				<port id="2" precision="FP16">
					<dim>-1</dim>
					<dim>24</dim>
					<dim>28</dim>
					<dim>28</dim>
				</port>
			</output>
		</layer>
		<layer id="190" name="Reshape_1576" type="Const" version="opset1">
			<data element_type="f16" shape="1, 24, 1, 1" offset="13468" size="48" />
			<output>
				<port id="0" precision="FP16">
					<dim>1</dim>
					<dim>24</dim>
					<dim>1</dim>
					<dim>1</dim>
				</port>
			</output>
		</layer>
		<layer id="191" name="/stage2/stage2.3/branch2/branch2.3/Conv" type="Add" version="opset1">
			<data auto_broadcast="numpy" />
			<input>
				<port id="0" precision="FP16">
					<dim>-1</dim>
					<dim>24</dim>
					<dim>28</dim>
					<dim>28</dim>
				</port>
				<port id="1" precision="FP16">
					<dim>1</dim>
					<dim>24</dim>
					<dim>1</dim>
					<dim>1</dim>
				</port>
			</input>
			<output>
				<port id="2" precision="FP16" names="/stage2/stage2.3/branch2/branch2.3/Conv_output_0">
					<dim>-1</dim>
					<dim>24</dim>
					<dim>28</dim>
					<dim>28</dim>
				</port>
			</output>
		</layer>
		<layer id="192" name="onnx::Conv_1358" type="Const" version="opset1">
			<data element_type="f16" shape="24, 24, 1, 1" offset="13516" size="1152" />
			<output>
				<port id="0" precision="FP16" names="onnx::Conv_1358">
					<dim>24</dim>
					<dim>24</dim>
					<dim>1</dim>
					<dim>1</dim>
				</port>
			</output>
		</layer>
		<layer id="193" name="/stage2/stage2.3/branch2/branch2.5/Conv/WithoutBiases" type="Convolution" version="opset1">
			<data strides="1, 1" dilations="1, 1" pads_begin="0, 0" pads_end="0, 0" auto_pad="explicit" />
			<input>
				<port id="0" precision="FP16">
					<dim>-1</dim>
					<dim>24</dim>
					<dim>28</dim>
					<dim>28</dim>
				</port>
				<port id="1" precision="FP16">
					<dim>24</dim>
					<dim>24</dim>
					<dim>1</dim>
					<dim>1</dim>
				</port>
			</input>
			<output>
				<port id="2" precision="FP16">
					<dim>-1</dim>
					<dim>24</dim>
					<dim>28</dim>
					<dim>28</dim>
				</port>
			</output>
		</layer>
		<layer id="194" name="Reshape_1591" type="Const" version="opset1">
			<data element_type="f16" shape="1, 24, 1, 1" offset="14668" size="48" />
			<output>
				<port id="0" precision="FP16">
					<dim>1</dim>
					<dim>24</dim>
					<dim>1</dim>
					<dim>1</dim>
				</port>
			</output>
		</layer>
		<layer id="195" name="/stage2/stage2.3/branch2/branch2.5/Conv" type="Add" version="opset1">
			<data auto_broadcast="numpy" />
			<input>
				<port id="0" precision="FP16">
					<dim>-1</dim>
					<dim>24</dim>
					<dim>28</dim>
					<dim>28</dim>
				</port>
				<port id="1" precision="FP16">
					<dim>1</dim>
					<dim>24</dim>
					<dim>1</dim>
					<dim>1</dim>
				</port>
			</input>
			<output>
				<port id="2" precision="FP16" names="/stage2/stage2.3/branch2/branch2.5/Conv_output_0">
					<dim>-1</dim>
					<dim>24</dim>
					<dim>28</dim>
					<dim>28</dim>
				</port>
			</output>
		</layer>
		<layer id="196" name="/stage2/stage2.3/branch2/branch2.7/Relu" type="ReLU" version="opset1">
			<input>
				<port id="0" precision="FP16">
					<dim>-1</dim>
					<dim>24</dim>
					<dim>28</dim>
					<dim>28</dim>
				</port>
			</input>
			<output>
				<port id="1" precision="FP16" names="/stage2/stage2.3/branch2/branch2.7/Relu_output_0">
					<dim>-1</dim>
					<dim>24</dim>
					<dim>28</dim>
					<dim>28</dim>
				</port>
			</output>
		</layer>
		<layer id="197" name="/stage2/stage2.3/Concat" type="Concat" version="opset1">
			<data axis="1" />
			<input>
				<port id="0" precision="FP16">
					<dim>-1</dim>
					<dim>-1</dim>
					<dim>28</dim>
					<dim>28</dim>
				</port>
				<port id="1" precision="FP16">
					<dim>-1</dim>
					<dim>24</dim>
					<dim>28</dim>
					<dim>28</dim>
				</port>
			</input>
			<output>
				<port id="2" precision="FP16" names="/stage2/stage2.3/Concat_output_0">
					<dim>-1</dim>
					<dim>-1</dim>
					<dim>28</dim>
					<dim>28</dim>
				</port>
			</output>
		</layer>
		<layer id="198" name="Constant_27628" type="Const" version="opset1">
			<data element_type="i64" shape="1" offset="5984" size="8" />
			<output>
				<port id="0" precision="I64">
					<dim>1</dim>
				</port>
			</output>
		</layer>
		<layer id="199" name="/stage2/stage2.3/Shape_1" type="ShapeOf" version="opset3">
			<data output_type="i64" />
			<input>
				<port id="0" precision="FP16">
					<dim>-1</dim>
					<dim>-1</dim>
					<dim>28</dim>
					<dim>28</dim>
				</port>
			</input>
			<output>
				<port id="1" precision="I64" names="/stage2/stage2.3/Shape_1_output_0">
					<dim>4</dim>
				</port>
			</output>
		</layer>
		<layer id="200" name="Constant_1600" type="Const" version="opset1">
			<data element_type="i64" shape="" offset="5984" size="8" />
			<output>
				<port id="0" precision="I64" />
			</output>
		</layer>
		<layer id="201" name="/stage2/stage2.3/Gather_2" type="Gather" version="opset8">
			<data batch_dims="0" />
			<input>
				<port id="0" precision="I64">
					<dim>4</dim>
				</port>
				<port id="1" precision="I64" />
				<port id="2" precision="I64" />
			</input>
			<output>
				<port id="3" precision="I64" names="/stage2/stage2.3/Gather_2_output_0" />
			</output>
		</layer>
		<layer id="202" name="/stage2/stage2.3/Div_1" type="Divide" version="opset1">
			<data auto_broadcast="numpy" m_pythondiv="true" />
			<input>
				<port id="0" precision="I64" />
				<port id="1" precision="I64" />
			</input>
			<output>
				<port id="2" precision="I64" names="/stage2/stage2.3/Div_1_output_0" />
			</output>
		</layer>
		<layer id="203" name="/stage2/stage2.3/Unsqueeze_1" type="Unsqueeze" version="opset1">
			<input>
				<port id="0" precision="I64" />
				<port id="1" precision="I64">
					<dim>1</dim>
				</port>
			</input>
			<output>
				<port id="2" precision="I64" names="/stage2/stage2.3/Unsqueeze_1_output_0">
					<dim>1</dim>
				</port>
			</output>
		</layer>
		<layer id="204" name="Constant_23293" type="Const" version="opset1">
			<data element_type="i64" shape="2" offset="8940" size="16" />
			<output>
				<port id="0" precision="I64">
					<dim>2</dim>
				</port>
			</output>
		</layer>
		<layer id="205" name="Constant_23294" type="Const" version="opset1">
			<data element_type="i64" shape="" offset="5984" size="8" />
			<output>
				<port id="0" precision="I64" />
			</output>
		</layer>
		<layer id="206" name="Gather_23295" type="Gather" version="opset8">
			<data batch_dims="0" />
			<input>
				<port id="0" precision="I64">
					<dim>4</dim>
				</port>
				<port id="1" precision="I64">
					<dim>2</dim>
				</port>
				<port id="2" precision="I64" />
			</input>
			<output>
				<port id="3" precision="I64">
					<dim>2</dim>
				</port>
			</output>
		</layer>
		<layer id="207" name="/stage2/stage2.3/Concat_1" type="Concat" version="opset1">
			<data axis="0" />
			<input>
				<port id="0" precision="I64">
					<dim>1</dim>
				</port>
				<port id="1" precision="I64">
					<dim>1</dim>
				</port>
				<port id="2" precision="I64">
					<dim>1</dim>
				</port>
				<port id="3" precision="I64">
					<dim>2</dim>
				</port>
			</input>
			<output>
				<port id="4" precision="I64">
					<dim>5</dim>
				</port>
			</output>
		</layer>
		<layer id="208" name="/stage2/stage2.3/Reshape" type="Reshape" version="opset1">
			<data special_zero="true" />
			<input>
				<port id="0" precision="FP16">
					<dim>-1</dim>
					<dim>-1</dim>
					<dim>28</dim>
					<dim>28</dim>
				</port>
				<port id="1" precision="I64">
					<dim>5</dim>
				</port>
			</input>
			<output>
				<port id="2" precision="FP16" names="/stage2/stage2.3/Reshape_output_0">
					<dim>-1</dim>
					<dim>2</dim>
					<dim>-1</dim>
					<dim>28</dim>
					<dim>28</dim>
				</port>
			</output>
		</layer>
		<layer id="209" name="Constant_1657" type="Const" version="opset1">
			<data element_type="i64" shape="5" offset="5944" size="40" />
			<output>
				<port id="0" precision="I64">
					<dim>5</dim>
				</port>
			</output>
		</layer>
		<layer id="210" name="/stage2/stage2.3/Transpose" type="Transpose" version="opset1">
			<input>
				<port id="0" precision="FP16">
					<dim>-1</dim>
					<dim>2</dim>
					<dim>-1</dim>
					<dim>28</dim>
					<dim>28</dim>
				</port>
				<port id="1" precision="I64">
					<dim>5</dim>
				</port>
			</input>
			<output>
				<port id="2" precision="FP16" names="/stage2/stage2.3/Transpose_output_0">
					<dim>-1</dim>
					<dim>-1</dim>
					<dim>2</dim>
					<dim>28</dim>
					<dim>28</dim>
				</port>
			</output>
		</layer>
		<layer id="211" name="Constant_23042" type="Const" version="opset1">
			<data element_type="i64" shape="1" offset="5984" size="8" />
			<output>
				<port id="0" precision="I64">
					<dim>1</dim>
				</port>
			</output>
		</layer>
		<layer id="212" name="Constant_1598" type="Const" version="opset1">
			<data element_type="i64" shape="" offset="5984" size="8" />
			<output>
				<port id="0" precision="I64" />
			</output>
		</layer>
		<layer id="213" name="/stage2/stage2.3/Gather_1" type="Gather" version="opset8">
			<data batch_dims="0" />
			<input>
				<port id="0" precision="I64">
					<dim>4</dim>
				</port>
				<port id="1" precision="I64">
					<dim>1</dim>
				</port>
				<port id="2" precision="I64" />
			</input>
			<output>
				<port id="3" precision="I64" names="/stage2/stage2.3/Unsqueeze_output_0">
					<dim>1</dim>
				</port>
			</output>
		</layer>
		<layer id="214" name="Constant_23298" type="Const" version="opset1">
			<data element_type="i64" shape="2" offset="8940" size="16" />
			<output>
				<port id="0" precision="I64">
					<dim>2</dim>
				</port>
			</output>
		</layer>
		<layer id="215" name="Constant_23299" type="Const" version="opset1">
			<data element_type="i64" shape="" offset="5984" size="8" />
			<output>
				<port id="0" precision="I64" />
			</output>
		</layer>
		<layer id="216" name="Gather_23300" type="Gather" version="opset8">
			<data batch_dims="0" />
			<input>
				<port id="0" precision="I64">
					<dim>4</dim>
				</port>
				<port id="1" precision="I64">
					<dim>2</dim>
				</port>
				<port id="2" precision="I64" />
			</input>
			<output>
				<port id="3" precision="I64">
					<dim>2</dim>
				</port>
			</output>
		</layer>
		<layer id="217" name="/stage2/stage2.3/Concat_2" type="Concat" version="opset1">
			<data axis="0" />
			<input>
				<port id="0" precision="I64">
					<dim>1</dim>
				</port>
				<port id="1" precision="I64">
					<dim>1</dim>
				</port>
				<port id="2" precision="I64">
					<dim>2</dim>
				</port>
			</input>
			<output>
				<port id="3" precision="I64" names="/stage2/stage2.3/Concat_2_output_0">
					<dim>4</dim>
				</port>
			</output>
		</layer>
		<layer id="218" name="/stage2/stage2.3/Reshape_1" type="Reshape" version="opset1">
			<data special_zero="true" />
			<input>
				<port id="0" precision="FP16">
					<dim>-1</dim>
					<dim>-1</dim>
					<dim>2</dim>
					<dim>28</dim>
					<dim>28</dim>
				</port>
				<port id="1" precision="I64">
					<dim>4</dim>
				</port>
			</input>
			<output>
				<port id="2" precision="FP16" names="/stage2/stage2.3/Reshape_1_output_0">
					<dim>-1</dim>
					<dim>-1</dim>
					<dim>28</dim>
					<dim>28</dim>
				</port>
			</output>
		</layer>
		<layer id="219" name="Reshape_1674" type="Const" version="opset1">
			<data element_type="f16" shape="48, 1, 1, 3, 3" offset="14716" size="864" />
			<output>
				<port id="0" precision="FP16">
					<dim>48</dim>
					<dim>1</dim>
					<dim>1</dim>
					<dim>3</dim>
					<dim>3</dim>
				</port>
			</output>
		</layer>
		<layer id="220" name="/stage3/stage3.0/branch1/branch1.0/Conv/WithoutBiases" type="GroupConvolution" version="opset1">
			<data strides="2, 2" pads_begin="1, 1" pads_end="1, 1" dilations="1, 1" auto_pad="explicit" />
			<input>
				<port id="0" precision="FP16">
					<dim>-1</dim>
					<dim>-1</dim>
					<dim>28</dim>
					<dim>28</dim>
				</port>
				<port id="1" precision="FP16">
					<dim>48</dim>
					<dim>1</dim>
					<dim>1</dim>
					<dim>3</dim>
					<dim>3</dim>
				</port>
			</input>
			<output>
				<port id="2" precision="FP16">
					<dim>-1</dim>
					<dim>48</dim>
					<dim>14</dim>
					<dim>14</dim>
				</port>
			</output>
		</layer>
		<layer id="221" name="Reshape_1726" type="Const" version="opset1">
			<data element_type="f16" shape="1, 48, 1, 1" offset="15580" size="96" />
			<output>
				<port id="0" precision="FP16">
					<dim>1</dim>
					<dim>48</dim>
					<dim>1</dim>
					<dim>1</dim>
				</port>
			</output>
		</layer>
		<layer id="222" name="/stage3/stage3.0/branch1/branch1.0/Conv" type="Add" version="opset1">
			<data auto_broadcast="numpy" />
			<input>
				<port id="0" precision="FP16">
					<dim>-1</dim>
					<dim>48</dim>
					<dim>14</dim>
					<dim>14</dim>
				</port>
				<port id="1" precision="FP16">
					<dim>1</dim>
					<dim>48</dim>
					<dim>1</dim>
					<dim>1</dim>
				</port>
			</input>
			<output>
				<port id="2" precision="FP16" names="/stage3/stage3.0/branch1/branch1.0/Conv_output_0">
					<dim>-1</dim>
					<dim>48</dim>
					<dim>14</dim>
					<dim>14</dim>
				</port>
			</output>
		</layer>
		<layer id="223" name="onnx::Conv_1364" type="Const" version="opset1">
			<data element_type="f16" shape="48, 48, 1, 1" offset="15676" size="4608" />
			<output>
				<port id="0" precision="FP16" names="onnx::Conv_1364">
					<dim>48</dim>
					<dim>48</dim>
					<dim>1</dim>
					<dim>1</dim>
				</port>
			</output>
		</layer>
		<layer id="224" name="/stage3/stage3.0/branch1/branch1.2/Conv/WithoutBiases" type="Convolution" version="opset1">
			<data strides="1, 1" dilations="1, 1" pads_begin="0, 0" pads_end="0, 0" auto_pad="explicit" />
			<input>
				<port id="0" precision="FP16">
					<dim>-1</dim>
					<dim>48</dim>
					<dim>14</dim>
					<dim>14</dim>
				</port>
				<port id="1" precision="FP16">
					<dim>48</dim>
					<dim>48</dim>
					<dim>1</dim>
					<dim>1</dim>
				</port>
			</input>
			<output>
				<port id="2" precision="FP16">
					<dim>-1</dim>
					<dim>48</dim>
					<dim>14</dim>
					<dim>14</dim>
				</port>
			</output>
		</layer>
		<layer id="225" name="Reshape_1741" type="Const" version="opset1">
			<data element_type="f16" shape="1, 48, 1, 1" offset="20284" size="96" />
			<output>
				<port id="0" precision="FP16">
					<dim>1</dim>
					<dim>48</dim>
					<dim>1</dim>
					<dim>1</dim>
				</port>
			</output>
		</layer>
		<layer id="226" name="/stage3/stage3.0/branch1/branch1.2/Conv" type="Add" version="opset1">
			<data auto_broadcast="numpy" />
			<input>
				<port id="0" precision="FP16">
					<dim>-1</dim>
					<dim>48</dim>
					<dim>14</dim>
					<dim>14</dim>
				</port>
				<port id="1" precision="FP16">
					<dim>1</dim>
					<dim>48</dim>
					<dim>1</dim>
					<dim>1</dim>
				</port>
			</input>
			<output>
				<port id="2" precision="FP16" names="/stage3/stage3.0/branch1/branch1.2/Conv_output_0">
					<dim>-1</dim>
					<dim>48</dim>
					<dim>14</dim>
					<dim>14</dim>
				</port>
			</output>
		</layer>
		<layer id="227" name="/stage3/stage3.0/branch1/branch1.4/Relu" type="ReLU" version="opset1">
			<input>
				<port id="0" precision="FP16">
					<dim>-1</dim>
					<dim>48</dim>
					<dim>14</dim>
					<dim>14</dim>
				</port>
			</input>
			<output>
				<port id="1" precision="FP16" names="/stage3/stage3.0/branch1/branch1.4/Relu_output_0">
					<dim>-1</dim>
					<dim>48</dim>
					<dim>14</dim>
					<dim>14</dim>
				</port>
			</output>
		</layer>
		<layer id="228" name="onnx::Conv_1367" type="Const" version="opset1">
			<data element_type="f16" shape="48, 48, 1, 1" offset="20380" size="4608" />
			<output>
				<port id="0" precision="FP16" names="onnx::Conv_1367">
					<dim>48</dim>
					<dim>48</dim>
					<dim>1</dim>
					<dim>1</dim>
				</port>
			</output>
		</layer>
		<layer id="229" name="/stage3/stage3.0/branch2/branch2.0/Conv/WithoutBiases" type="Convolution" version="opset1">
			<data strides="1, 1" dilations="1, 1" pads_begin="0, 0" pads_end="0, 0" auto_pad="explicit" />
			<input>
				<port id="0" precision="FP16">
					<dim>-1</dim>
					<dim>-1</dim>
					<dim>28</dim>
					<dim>28</dim>
				</port>
				<port id="1" precision="FP16">
					<dim>48</dim>
					<dim>48</dim>
					<dim>1</dim>
					<dim>1</dim>
				</port>
			</input>
			<output>
				<port id="2" precision="FP16">
					<dim>-1</dim>
					<dim>48</dim>
					<dim>28</dim>
					<dim>28</dim>
				</port>
			</output>
		</layer>
		<layer id="230" name="Reshape_1757" type="Const" version="opset1">
			<data element_type="f16" shape="1, 48, 1, 1" offset="24988" size="96" />
			<output>
				<port id="0" precision="FP16">
					<dim>1</dim>
					<dim>48</dim>
					<dim>1</dim>
					<dim>1</dim>
				</port>
			</output>
		</layer>
		<layer id="231" name="/stage3/stage3.0/branch2/branch2.0/Conv" type="Add" version="opset1">
			<data auto_broadcast="numpy" />
			<input>
				<port id="0" precision="FP16">
					<dim>-1</dim>
					<dim>48</dim>
					<dim>28</dim>
					<dim>28</dim>
				</port>
				<port id="1" precision="FP16">
					<dim>1</dim>
					<dim>48</dim>
					<dim>1</dim>
					<dim>1</dim>
				</port>
			</input>
			<output>
				<port id="2" precision="FP16" names="/stage3/stage3.0/branch2/branch2.0/Conv_output_0">
					<dim>-1</dim>
					<dim>48</dim>
					<dim>28</dim>
					<dim>28</dim>
				</port>
			</output>
		</layer>
		<layer id="232" name="/stage3/stage3.0/branch2/branch2.2/Relu" type="ReLU" version="opset1">
			<input>
				<port id="0" precision="FP16">
					<dim>-1</dim>
					<dim>48</dim>
					<dim>28</dim>
					<dim>28</dim>
				</port>
			</input>
			<output>
				<port id="1" precision="FP16" names="/stage3/stage3.0/branch2/branch2.2/Relu_output_0">
					<dim>-1</dim>
					<dim>48</dim>
					<dim>28</dim>
					<dim>28</dim>
				</port>
			</output>
		</layer>
		<layer id="233" name="Reshape_1769" type="Const" version="opset1">
			<data element_type="f16" shape="48, 1, 1, 3, 3" offset="25084" size="864" />
			<output>
				<port id="0" precision="FP16">
					<dim>48</dim>
					<dim>1</dim>
					<dim>1</dim>
					<dim>3</dim>
					<dim>3</dim>
				</port>
			</output>
		</layer>
		<layer id="234" name="/stage3/stage3.0/branch2/branch2.3/Conv/WithoutBiases" type="GroupConvolution" version="opset1">
			<data strides="2, 2" pads_begin="1, 1" pads_end="1, 1" dilations="1, 1" auto_pad="explicit" />
			<input>
				<port id="0" precision="FP16">
					<dim>-1</dim>
					<dim>48</dim>
					<dim>28</dim>
					<dim>28</dim>
				</port>
				<port id="1" precision="FP16">
					<dim>48</dim>
					<dim>1</dim>
					<dim>1</dim>
					<dim>3</dim>
					<dim>3</dim>
				</port>
			</input>
			<output>
				<port id="2" precision="FP16">
					<dim>-1</dim>
					<dim>48</dim>
					<dim>14</dim>
					<dim>14</dim>
				</port>
			</output>
		</layer>
		<layer id="235" name="Reshape_1821" type="Const" version="opset1">
			<data element_type="f16" shape="1, 48, 1, 1" offset="25948" size="96" />
			<output>
				<port id="0" precision="FP16">
					<dim>1</dim>
					<dim>48</dim>
					<dim>1</dim>
					<dim>1</dim>
				</port>
			</output>
		</layer>
		<layer id="236" name="/stage3/stage3.0/branch2/branch2.3/Conv" type="Add" version="opset1">
			<data auto_broadcast="numpy" />
			<input>
				<port id="0" precision="FP16">
					<dim>-1</dim>
					<dim>48</dim>
					<dim>14</dim>
					<dim>14</dim>
				</port>
				<port id="1" precision="FP16">
					<dim>1</dim>
					<dim>48</dim>
					<dim>1</dim>
					<dim>1</dim>
				</port>
			</input>
			<output>
				<port id="2" precision="FP16" names="/stage3/stage3.0/branch2/branch2.3/Conv_output_0">
					<dim>-1</dim>
					<dim>48</dim>
					<dim>14</dim>
					<dim>14</dim>
				</port>
			</output>
		</layer>
		<layer id="237" name="onnx::Conv_1373" type="Const" version="opset1">
			<data element_type="f16" shape="48, 48, 1, 1" offset="26044" size="4608" />
			<output>
				<port id="0" precision="FP16" names="onnx::Conv_1373">
					<dim>48</dim>
					<dim>48</dim>
					<dim>1</dim>
					<dim>1</dim>
				</port>
			</output>
		</layer>
		<layer id="238" name="/stage3/stage3.0/branch2/branch2.5/Conv/WithoutBiases" type="Convolution" version="opset1">
			<data strides="1, 1" dilations="1, 1" pads_begin="0, 0" pads_end="0, 0" auto_pad="explicit" />
			<input>
				<port id="0" precision="FP16">
					<dim>-1</dim>
					<dim>48</dim>
					<dim>14</dim>
					<dim>14</dim>
				</port>
				<port id="1" precision="FP16">
					<dim>48</dim>
					<dim>48</dim>
					<dim>1</dim>
					<dim>1</dim>
				</port>
			</input>
			<output>
				<port id="2" precision="FP16">
					<dim>-1</dim>
					<dim>48</dim>
					<dim>14</dim>
					<dim>14</dim>
				</port>
			</output>
		</layer>
		<layer id="239" name="Reshape_1836" type="Const" version="opset1">
			<data element_type="f16" shape="1, 48, 1, 1" offset="30652" size="96" />
			<output>
				<port id="0" precision="FP16">
					<dim>1</dim>
					<dim>48</dim>
					<dim>1</dim>
					<dim>1</dim>
				</port>
			</output>
		</layer>
		<layer id="240" name="/stage3/stage3.0/branch2/branch2.5/Conv" type="Add" version="opset1">
			<data auto_broadcast="numpy" />
			<input>
				<port id="0" precision="FP16">
					<dim>-1</dim>
					<dim>48</dim>
					<dim>14</dim>
					<dim>14</dim>
				</port>
				<port id="1" precision="FP16">
					<dim>1</dim>
					<dim>48</dim>
					<dim>1</dim>
					<dim>1</dim>
				</port>
			</input>
			<output>
				<port id="2" precision="FP16" names="/stage3/stage3.0/branch2/branch2.5/Conv_output_0">
					<dim>-1</dim>
					<dim>48</dim>
					<dim>14</dim>
					<dim>14</dim>
				</port>
			</output>
		</layer>
		<layer id="241" name="/stage3/stage3.0/branch2/branch2.7/Relu" type="ReLU" version="opset1">
			<input>
				<port id="0" precision="FP16">
					<dim>-1</dim>
					<dim>48</dim>
					<dim>14</dim>
					<dim>14</dim>
				</port>
			</input>
			<output>
				<port id="1" precision="FP16" names="/stage3/stage3.0/branch2/branch2.7/Relu_output_0">
					<dim>-1</dim>
					<dim>48</dim>
					<dim>14</dim>
					<dim>14</dim>
				</port>
			</output>
		</layer>
		<layer id="242" name="/stage3/stage3.0/Concat" type="Concat" version="opset1">
			<data axis="1" />
			<input>
				<port id="0" precision="FP16">
					<dim>-1</dim>
					<dim>48</dim>
					<dim>14</dim>
					<dim>14</dim>
				</port>
				<port id="1" precision="FP16">
					<dim>-1</dim>
					<dim>48</dim>
					<dim>14</dim>
					<dim>14</dim>
				</port>
			</input>
			<output>
				<port id="2" precision="FP16" names="/stage3/stage3.0/Concat_output_0">
					<dim>-1</dim>
					<dim>96</dim>
					<dim>14</dim>
					<dim>14</dim>
				</port>
			</output>
		</layer>
		<layer id="243" name="Constant_27675" type="Const" version="opset1">
			<data element_type="i64" shape="1" offset="5984" size="8" />
			<output>
				<port id="0" precision="I64">
					<dim>1</dim>
				</port>
			</output>
		</layer>
		<layer id="244" name="/stage3/stage3.0/Shape" type="ShapeOf" version="opset3">
			<data output_type="i64" />
			<input>
				<port id="0" precision="FP16">
					<dim>-1</dim>
					<dim>96</dim>
					<dim>14</dim>
					<dim>14</dim>
				</port>
			</input>
			<output>
				<port id="1" precision="I64" names="/stage3/stage3.0/Shape_output_0">
					<dim>4</dim>
				</port>
			</output>
		</layer>
		<layer id="245" name="Constant_1845" type="Const" version="opset1">
			<data element_type="i64" shape="" offset="5984" size="8" />
			<output>
				<port id="0" precision="I64" />
			</output>
		</layer>
		<layer id="246" name="/stage3/stage3.0/Gather_1" type="Gather" version="opset8">
			<data batch_dims="0" />
			<input>
				<port id="0" precision="I64">
					<dim>4</dim>
				</port>
				<port id="1" precision="I64" />
				<port id="2" precision="I64" />
			</input>
			<output>
				<port id="3" precision="I64" names="/stage3/stage3.0/Gather_1_output_0" />
			</output>
		</layer>
		<layer id="247" name="/stage3/stage3.0/Div" type="Divide" version="opset1">
			<data auto_broadcast="numpy" m_pythondiv="true" />
			<input>
				<port id="0" precision="I64" />
				<port id="1" precision="I64" />
			</input>
			<output>
				<port id="2" precision="I64" names="/stage3/stage3.0/Div_output_0" />
			</output>
		</layer>
		<layer id="248" name="/stage3/stage3.0/Unsqueeze_1" type="Unsqueeze" version="opset1">
			<input>
				<port id="0" precision="I64" />
				<port id="1" precision="I64">
					<dim>1</dim>
				</port>
			</input>
			<output>
				<port id="2" precision="I64" names="/stage3/stage3.0/Unsqueeze_1_output_0">
					<dim>1</dim>
				</port>
			</output>
		</layer>
		<layer id="249" name="Constant_23303" type="Const" version="opset1">
			<data element_type="i64" shape="2" offset="8940" size="16" />
			<output>
				<port id="0" precision="I64">
					<dim>2</dim>
				</port>
			</output>
		</layer>
		<layer id="250" name="Constant_23304" type="Const" version="opset1">
			<data element_type="i64" shape="" offset="5984" size="8" />
			<output>
				<port id="0" precision="I64" />
			</output>
		</layer>
		<layer id="251" name="Gather_23305" type="Gather" version="opset8">
			<data batch_dims="0" />
			<input>
				<port id="0" precision="I64">
					<dim>4</dim>
				</port>
				<port id="1" precision="I64">
					<dim>2</dim>
				</port>
				<port id="2" precision="I64" />
			</input>
			<output>
				<port id="3" precision="I64">
					<dim>2</dim>
				</port>
			</output>
		</layer>
		<layer id="252" name="/stage3/stage3.0/Concat_1" type="Concat" version="opset1">
			<data axis="0" />
			<input>
				<port id="0" precision="I64">
					<dim>1</dim>
				</port>
				<port id="1" precision="I64">
					<dim>1</dim>
				</port>
				<port id="2" precision="I64">
					<dim>1</dim>
				</port>
				<port id="3" precision="I64">
					<dim>2</dim>
				</port>
			</input>
			<output>
				<port id="4" precision="I64">
					<dim>5</dim>
				</port>
			</output>
		</layer>
		<layer id="253" name="/stage3/stage3.0/Reshape" type="Reshape" version="opset1">
			<data special_zero="true" />
			<input>
				<port id="0" precision="FP16">
					<dim>-1</dim>
					<dim>96</dim>
					<dim>14</dim>
					<dim>14</dim>
				</port>
				<port id="1" precision="I64">
					<dim>5</dim>
				</port>
			</input>
			<output>
				<port id="2" precision="FP16" names="/stage3/stage3.0/Reshape_output_0">
					<dim>-1</dim>
					<dim>2</dim>
					<dim>48</dim>
					<dim>14</dim>
					<dim>14</dim>
				</port>
			</output>
		</layer>
		<layer id="254" name="Constant_1902" type="Const" version="opset1">
			<data element_type="i64" shape="5" offset="5944" size="40" />
			<output>
				<port id="0" precision="I64">
					<dim>5</dim>
				</port>
			</output>
		</layer>
		<layer id="255" name="/stage3/stage3.0/Transpose" type="Transpose" version="opset1">
			<input>
				<port id="0" precision="FP16">
					<dim>-1</dim>
					<dim>2</dim>
					<dim>48</dim>
					<dim>14</dim>
					<dim>14</dim>
				</port>
				<port id="1" precision="I64">
					<dim>5</dim>
				</port>
			</input>
			<output>
				<port id="2" precision="FP16" names="/stage3/stage3.0/Transpose_output_0">
					<dim>-1</dim>
					<dim>48</dim>
					<dim>2</dim>
					<dim>14</dim>
					<dim>14</dim>
				</port>
			</output>
		</layer>
		<layer id="256" name="Constant_23060" type="Const" version="opset1">
			<data element_type="i64" shape="1" offset="5984" size="8" />
			<output>
				<port id="0" precision="I64">
					<dim>1</dim>
				</port>
			</output>
		</layer>
		<layer id="257" name="Constant_1843" type="Const" version="opset1">
			<data element_type="i64" shape="" offset="5984" size="8" />
			<output>
				<port id="0" precision="I64" />
			</output>
		</layer>
		<layer id="258" name="/stage3/stage3.0/Gather" type="Gather" version="opset8">
			<data batch_dims="0" />
			<input>
				<port id="0" precision="I64">
					<dim>4</dim>
				</port>
				<port id="1" precision="I64">
					<dim>1</dim>
				</port>
				<port id="2" precision="I64" />
			</input>
			<output>
				<port id="3" precision="I64" names="/stage3/stage3.0/Unsqueeze_output_0">
					<dim>1</dim>
				</port>
			</output>
		</layer>
		<layer id="259" name="Constant_23308" type="Const" version="opset1">
			<data element_type="i64" shape="2" offset="8940" size="16" />
			<output>
				<port id="0" precision="I64">
					<dim>2</dim>
				</port>
			</output>
		</layer>
		<layer id="260" name="Constant_23309" type="Const" version="opset1">
			<data element_type="i64" shape="" offset="5984" size="8" />
			<output>
				<port id="0" precision="I64" />
			</output>
		</layer>
		<layer id="261" name="Gather_23310" type="Gather" version="opset8">
			<data batch_dims="0" />
			<input>
				<port id="0" precision="I64">
					<dim>4</dim>
				</port>
				<port id="1" precision="I64">
					<dim>2</dim>
				</port>
				<port id="2" precision="I64" />
			</input>
			<output>
				<port id="3" precision="I64">
					<dim>2</dim>
				</port>
			</output>
		</layer>
		<layer id="262" name="/stage3/stage3.0/Concat_2" type="Concat" version="opset1">
			<data axis="0" />
			<input>
				<port id="0" precision="I64">
					<dim>1</dim>
				</port>
				<port id="1" precision="I64">
					<dim>1</dim>
				</port>
				<port id="2" precision="I64">
					<dim>2</dim>
				</port>
			</input>
			<output>
				<port id="3" precision="I64" names="/stage3/stage3.0/Concat_2_output_0">
					<dim>4</dim>
				</port>
			</output>
		</layer>
		<layer id="263" name="/stage3/stage3.0/Reshape_1" type="Reshape" version="opset1">
			<data special_zero="true" />
			<input>
				<port id="0" precision="FP16">
					<dim>-1</dim>
					<dim>48</dim>
					<dim>2</dim>
					<dim>14</dim>
					<dim>14</dim>
				</port>
				<port id="1" precision="I64">
					<dim>4</dim>
				</port>
			</input>
			<output>
				<port id="2" precision="FP16" names="/stage3/stage3.0/Reshape_1_output_0">
					<dim>-1</dim>
					<dim>-1</dim>
					<dim>14</dim>
					<dim>14</dim>
				</port>
			</output>
		</layer>
		<layer id="264" name="Constant_33487" type="Const" version="opset1">
			<data element_type="i64" shape="2" offset="6008" size="16" />
			<output>
				<port id="0" precision="I64">
					<dim>2</dim>
				</port>
			</output>
		</layer>
		<layer id="265" name="Constant_33488" type="Const" version="opset1">
			<data element_type="i64" shape="2" offset="6008" size="16" />
			<output>
				<port id="0" precision="I64">
					<dim>2</dim>
				</port>
			</output>
		</layer>
		<layer id="266" name="Constant_33484" type="Const" version="opset1">
			<data element_type="i64" shape="1" offset="6024" size="8" />
			<output>
				<port id="0" precision="I64">
					<dim>1</dim>
				</port>
			</output>
		</layer>
		<layer id="267" name="/stage3/stage3.1/Shape" type="ShapeOf" version="opset3">
			<data output_type="i64" />
			<input>
				<port id="0" precision="FP16">
					<dim>-1</dim>
					<dim>-1</dim>
					<dim>14</dim>
					<dim>14</dim>
				</port>
			</input>
			<output>
				<port id="1" precision="I64" names="/stage3/stage3.1/Shape_output_0">
					<dim>4</dim>
				</port>
			</output>
		</layer>
		<layer id="268" name="Constant_1913" type="Const" version="opset1">
			<data element_type="i64" shape="" offset="5984" size="8" />
			<output>
				<port id="0" precision="I64" />
			</output>
		</layer>
		<layer id="269" name="/stage3/stage3.1/Gather" type="Gather" version="opset8">
			<data batch_dims="0" />
			<input>
				<port id="0" precision="I64">
					<dim>4</dim>
				</port>
				<port id="1" precision="I64">
					<dim>1</dim>
				</port>
				<port id="2" precision="I64" />
			</input>
			<output>
				<port id="3" precision="I64" names="/stage3/stage3.1/Gather_output_0">
					<dim>1</dim>
				</port>
			</output>
		</layer>
		<layer id="270" name="/stage3/stage3.1/Add" type="Add" version="opset1">
			<data auto_broadcast="numpy" />
			<input>
				<port id="0" precision="I64">
					<dim>1</dim>
				</port>
				<port id="1" precision="I64">
					<dim>1</dim>
				</port>
			</input>
			<output>
				<port id="2" precision="I64" names="/stage3/stage3.1/Add_output_0">
					<dim>1</dim>
				</port>
			</output>
		</layer>
		<layer id="271" name="/stage3/stage3.1/Div" type="Divide" version="opset1">
			<data auto_broadcast="numpy" m_pythondiv="true" />
			<input>
				<port id="0" precision="I64">
					<dim>1</dim>
				</port>
				<port id="1" precision="I64">
					<dim>1</dim>
				</port>
			</input>
			<output>
				<port id="2" precision="I64" names="/stage3/stage3.1/Div_output_0">
					<dim>1</dim>
				</port>
			</output>
		</layer>
		<layer id="272" name="Constant_33483" type="Const" version="opset1">
			<data element_type="i32" shape="1" offset="6040" size="4" />
			<output>
				<port id="0" precision="I32">
					<dim>1</dim>
				</port>
			</output>
		</layer>
		<layer id="273" name="ScatterUpdate_33489" type="ScatterUpdate" version="opset3">
			<input>
				<port id="0" precision="I64">
					<dim>2</dim>
				</port>
				<port id="1" precision="I64">
					<dim>1</dim>
				</port>
				<port id="2" precision="I64">
					<dim>1</dim>
				</port>
				<port id="3" precision="I32">
					<dim>1</dim>
				</port>
			</input>
			<output>
				<port id="4" precision="I64">
					<dim>2</dim>
				</port>
			</output>
		</layer>
		<layer id="274" name="Constant_33492" type="Const" version="opset1">
			<data element_type="i64" shape="2" offset="6044" size="16" />
			<output>
				<port id="0" precision="I64">
					<dim>2</dim>
				</port>
			</output>
		</layer>
		<layer id="275" name="/stage3/stage3.1/Slice" type="StridedSlice" version="opset1">
			<data begin_mask="1, 0" end_mask="1, 0" new_axis_mask="" shrink_axis_mask="" ellipsis_mask="" />
			<input>
				<port id="0" precision="FP16">
					<dim>-1</dim>
					<dim>-1</dim>
					<dim>14</dim>
					<dim>14</dim>
				</port>
				<port id="1" precision="I64">
					<dim>2</dim>
				</port>
				<port id="2" precision="I64">
					<dim>2</dim>
				</port>
				<port id="3" precision="I64">
					<dim>2</dim>
				</port>
			</input>
			<output>
				<port id="4" precision="FP16" names="/stage3/stage3.1/Slice_output_0">
					<dim>-1</dim>
					<dim>-1</dim>
					<dim>14</dim>
					<dim>14</dim>
				</port>
			</output>
		</layer>
		<layer id="276" name="Constant_33596" type="Const" version="opset1">
			<data element_type="i64" shape="2" offset="6008" size="16" />
			<output>
				<port id="0" precision="I64">
					<dim>2</dim>
				</port>
			</output>
		</layer>
		<layer id="277" name="Constant_33595" type="Const" version="opset1">
			<data element_type="i64" shape="1" offset="6024" size="8" />
			<output>
				<port id="0" precision="I64">
					<dim>1</dim>
				</port>
			</output>
		</layer>
		<layer id="278" name="Constant_33594" type="Const" version="opset1">
			<data element_type="i32" shape="1" offset="6040" size="4" />
			<output>
				<port id="0" precision="I32">
					<dim>1</dim>
				</port>
			</output>
		</layer>
		<layer id="279" name="ScatterUpdate_33597" type="ScatterUpdate" version="opset3">
			<input>
				<port id="0" precision="I64">
					<dim>2</dim>
				</port>
				<port id="1" precision="I64">
					<dim>1</dim>
				</port>
				<port id="2" precision="I64">
					<dim>1</dim>
				</port>
				<port id="3" precision="I32">
					<dim>1</dim>
				</port>
			</input>
			<output>
				<port id="4" precision="I64">
					<dim>2</dim>
				</port>
			</output>
		</layer>
		<layer id="280" name="Constant_33598" type="Const" version="opset1">
			<data element_type="i64" shape="2" offset="6008" size="16" />
			<output>
				<port id="0" precision="I64">
					<dim>2</dim>
				</port>
			</output>
		</layer>
		<layer id="281" name="/stage3/stage3.1/Mul_1" type="Multiply" version="opset1">
			<data auto_broadcast="numpy" />
			<input>
				<port id="0" precision="I64">
					<dim>1</dim>
				</port>
				<port id="1" precision="I64">
					<dim>1</dim>
				</port>
			</input>
			<output>
				<port id="2" precision="I64" names="/stage3/stage3.1/Mul_1_output_0">
					<dim>1</dim>
				</port>
			</output>
		</layer>
		<layer id="282" name="ScatterUpdate_33599" type="ScatterUpdate" version="opset3">
			<input>
				<port id="0" precision="I64">
					<dim>2</dim>
				</port>
				<port id="1" precision="I64">
					<dim>1</dim>
				</port>
				<port id="2" precision="I64">
					<dim>1</dim>
				</port>
				<port id="3" precision="I32">
					<dim>1</dim>
				</port>
			</input>
			<output>
				<port id="4" precision="I64">
					<dim>2</dim>
				</port>
			</output>
		</layer>
		<layer id="283" name="Constant_33602" type="Const" version="opset1">
			<data element_type="i64" shape="2" offset="6044" size="16" />
			<output>
				<port id="0" precision="I64">
					<dim>2</dim>
				</port>
			</output>
		</layer>
		<layer id="284" name="/stage3/stage3.1/Slice_1" type="StridedSlice" version="opset1">
			<data begin_mask="1, 0" end_mask="1, 0" new_axis_mask="" shrink_axis_mask="" ellipsis_mask="" />
			<input>
				<port id="0" precision="FP16">
					<dim>-1</dim>
					<dim>-1</dim>
					<dim>14</dim>
					<dim>14</dim>
				</port>
				<port id="1" precision="I64">
					<dim>2</dim>
				</port>
				<port id="2" precision="I64">
					<dim>2</dim>
				</port>
				<port id="3" precision="I64">
					<dim>2</dim>
				</port>
			</input>
			<output>
				<port id="4" precision="FP16" names="/stage3/stage3.1/Slice_1_output_0">
					<dim>-1</dim>
					<dim>-1</dim>
					<dim>14</dim>
					<dim>14</dim>
				</port>
			</output>
		</layer>
		<layer id="285" name="onnx::Conv_1376" type="Const" version="opset1">
			<data element_type="f16" shape="48, 48, 1, 1" offset="30748" size="4608" />
			<output>
				<port id="0" precision="FP16" names="onnx::Conv_1376">
					<dim>48</dim>
					<dim>48</dim>
					<dim>1</dim>
					<dim>1</dim>
				</port>
			</output>
		</layer>
		<layer id="286" name="/stage3/stage3.1/branch2/branch2.0/Conv/WithoutBiases" type="Convolution" version="opset1">
			<data strides="1, 1" dilations="1, 1" pads_begin="0, 0" pads_end="0, 0" auto_pad="explicit" />
			<input>
				<port id="0" precision="FP16">
					<dim>-1</dim>
					<dim>-1</dim>
					<dim>14</dim>
					<dim>14</dim>
				</port>
				<port id="1" precision="FP16">
					<dim>48</dim>
					<dim>48</dim>
					<dim>1</dim>
					<dim>1</dim>
				</port>
			</input>
			<output>
				<port id="2" precision="FP16">
					<dim>-1</dim>
					<dim>48</dim>
					<dim>14</dim>
					<dim>14</dim>
				</port>
			</output>
		</layer>
		<layer id="287" name="Reshape_2201" type="Const" version="opset1">
			<data element_type="f16" shape="1, 48, 1, 1" offset="35356" size="96" />
			<output>
				<port id="0" precision="FP16">
					<dim>1</dim>
					<dim>48</dim>
					<dim>1</dim>
					<dim>1</dim>
				</port>
			</output>
		</layer>
		<layer id="288" name="/stage3/stage3.1/branch2/branch2.0/Conv" type="Add" version="opset1">
			<data auto_broadcast="numpy" />
			<input>
				<port id="0" precision="FP16">
					<dim>-1</dim>
					<dim>48</dim>
					<dim>14</dim>
					<dim>14</dim>
				</port>
				<port id="1" precision="FP16">
					<dim>1</dim>
					<dim>48</dim>
					<dim>1</dim>
					<dim>1</dim>
				</port>
			</input>
			<output>
				<port id="2" precision="FP16" names="/stage3/stage3.1/branch2/branch2.0/Conv_output_0">
					<dim>-1</dim>
					<dim>48</dim>
					<dim>14</dim>
					<dim>14</dim>
				</port>
			</output>
		</layer>
		<layer id="289" name="/stage3/stage3.1/branch2/branch2.2/Relu" type="ReLU" version="opset1">
			<input>
				<port id="0" precision="FP16">
					<dim>-1</dim>
					<dim>48</dim>
					<dim>14</dim>
					<dim>14</dim>
				</port>
			</input>
			<output>
				<port id="1" precision="FP16" names="/stage3/stage3.1/branch2/branch2.2/Relu_output_0">
					<dim>-1</dim>
					<dim>48</dim>
					<dim>14</dim>
					<dim>14</dim>
				</port>
			</output>
		</layer>
		<layer id="290" name="Reshape_2213" type="Const" version="opset1">
			<data element_type="f16" shape="48, 1, 1, 3, 3" offset="35452" size="864" />
			<output>
				<port id="0" precision="FP16">
					<dim>48</dim>
					<dim>1</dim>
					<dim>1</dim>
					<dim>3</dim>
					<dim>3</dim>
				</port>
			</output>
		</layer>
		<layer id="291" name="/stage3/stage3.1/branch2/branch2.3/Conv/WithoutBiases" type="GroupConvolution" version="opset1">
			<data strides="1, 1" pads_begin="1, 1" pads_end="1, 1" dilations="1, 1" auto_pad="explicit" />
			<input>
				<port id="0" precision="FP16">
					<dim>-1</dim>
					<dim>48</dim>
					<dim>14</dim>
					<dim>14</dim>
				</port>
				<port id="1" precision="FP16">
					<dim>48</dim>
					<dim>1</dim>
					<dim>1</dim>
					<dim>3</dim>
					<dim>3</dim>
				</port>
			</input>
			<output>
				<port id="2" precision="FP16">
					<dim>-1</dim>
					<dim>48</dim>
					<dim>14</dim>
					<dim>14</dim>
				</port>
			</output>
		</layer>
		<layer id="292" name="Reshape_2265" type="Const" version="opset1">
			<data element_type="f16" shape="1, 48, 1, 1" offset="36316" size="96" />
			<output>
				<port id="0" precision="FP16">
					<dim>1</dim>
					<dim>48</dim>
					<dim>1</dim>
					<dim>1</dim>
				</port>
			</output>
		</layer>
		<layer id="293" name="/stage3/stage3.1/branch2/branch2.3/Conv" type="Add" version="opset1">
			<data auto_broadcast="numpy" />
			<input>
				<port id="0" precision="FP16">
					<dim>-1</dim>
					<dim>48</dim>
					<dim>14</dim>
					<dim>14</dim>
				</port>
				<port id="1" precision="FP16">
					<dim>1</dim>
					<dim>48</dim>
					<dim>1</dim>
					<dim>1</dim>
				</port>
			</input>
			<output>
				<port id="2" precision="FP16" names="/stage3/stage3.1/branch2/branch2.3/Conv_output_0">
					<dim>-1</dim>
					<dim>48</dim>
					<dim>14</dim>
					<dim>14</dim>
				</port>
			</output>
		</layer>
		<layer id="294" name="onnx::Conv_1382" type="Const" version="opset1">
			<data element_type="f16" shape="48, 48, 1, 1" offset="36412" size="4608" />
			<output>
				<port id="0" precision="FP16" names="onnx::Conv_1382">
					<dim>48</dim>
					<dim>48</dim>
					<dim>1</dim>
					<dim>1</dim>
				</port>
			</output>
		</layer>
		<layer id="295" name="/stage3/stage3.1/branch2/branch2.5/Conv/WithoutBiases" type="Convolution" version="opset1">
			<data strides="1, 1" dilations="1, 1" pads_begin="0, 0" pads_end="0, 0" auto_pad="explicit" />
			<input>
				<port id="0" precision="FP16">
					<dim>-1</dim>
					<dim>48</dim>
					<dim>14</dim>
					<dim>14</dim>
				</port>
				<port id="1" precision="FP16">
					<dim>48</dim>
					<dim>48</dim>
					<dim>1</dim>
					<dim>1</dim>
				</port>
			</input>
			<output>
				<port id="2" precision="FP16">
					<dim>-1</dim>
					<dim>48</dim>
					<dim>14</dim>
					<dim>14</dim>
				</port>
			</output>
		</layer>
		<layer id="296" name="Reshape_2280" type="Const" version="opset1">
			<data element_type="f16" shape="1, 48, 1, 1" offset="41020" size="96" />
			<output>
				<port id="0" precision="FP16">
					<dim>1</dim>
					<dim>48</dim>
					<dim>1</dim>
					<dim>1</dim>
				</port>
			</output>
		</layer>
		<layer id="297" name="/stage3/stage3.1/branch2/branch2.5/Conv" type="Add" version="opset1">
			<data auto_broadcast="numpy" />
			<input>
				<port id="0" precision="FP16">
					<dim>-1</dim>
					<dim>48</dim>
					<dim>14</dim>
					<dim>14</dim>
				</port>
				<port id="1" precision="FP16">
					<dim>1</dim>
					<dim>48</dim>
					<dim>1</dim>
					<dim>1</dim>
				</port>
			</input>
			<output>
				<port id="2" precision="FP16" names="/stage3/stage3.1/branch2/branch2.5/Conv_output_0">
					<dim>-1</dim>
					<dim>48</dim>
					<dim>14</dim>
					<dim>14</dim>
				</port>
			</output>
		</layer>
		<layer id="298" name="/stage3/stage3.1/branch2/branch2.7/Relu" type="ReLU" version="opset1">
			<input>
				<port id="0" precision="FP16">
					<dim>-1</dim>
					<dim>48</dim>
					<dim>14</dim>
					<dim>14</dim>
				</port>
			</input>
			<output>
				<port id="1" precision="FP16" names="/stage3/stage3.1/branch2/branch2.7/Relu_output_0">
					<dim>-1</dim>
					<dim>48</dim>
					<dim>14</dim>
					<dim>14</dim>
				</port>
			</output>
		</layer>
		<layer id="299" name="/stage3/stage3.1/Concat" type="Concat" version="opset1">
			<data axis="1" />
			<input>
				<port id="0" precision="FP16">
					<dim>-1</dim>
					<dim>-1</dim>
					<dim>14</dim>
					<dim>14</dim>
				</port>
				<port id="1" precision="FP16">
					<dim>-1</dim>
					<dim>48</dim>
					<dim>14</dim>
					<dim>14</dim>
				</port>
			</input>
			<output>
				<port id="2" precision="FP16" names="/stage3/stage3.1/Concat_output_0">
					<dim>-1</dim>
					<dim>-1</dim>
					<dim>14</dim>
					<dim>14</dim>
				</port>
			</output>
		</layer>
		<layer id="300" name="Constant_27722" type="Const" version="opset1">
			<data element_type="i64" shape="1" offset="5984" size="8" />
			<output>
				<port id="0" precision="I64">
					<dim>1</dim>
				</port>
			</output>
		</layer>
		<layer id="301" name="/stage3/stage3.1/Shape_1" type="ShapeOf" version="opset3">
			<data output_type="i64" />
			<input>
				<port id="0" precision="FP16">
					<dim>-1</dim>
					<dim>-1</dim>
					<dim>14</dim>
					<dim>14</dim>
				</port>
			</input>
			<output>
				<port id="1" precision="I64" names="/stage3/stage3.1/Shape_1_output_0">
					<dim>4</dim>
				</port>
			</output>
		</layer>
		<layer id="302" name="Constant_2289" type="Const" version="opset1">
			<data element_type="i64" shape="" offset="5984" size="8" />
			<output>
				<port id="0" precision="I64" />
			</output>
		</layer>
		<layer id="303" name="/stage3/stage3.1/Gather_2" type="Gather" version="opset8">
			<data batch_dims="0" />
			<input>
				<port id="0" precision="I64">
					<dim>4</dim>
				</port>
				<port id="1" precision="I64" />
				<port id="2" precision="I64" />
			</input>
			<output>
				<port id="3" precision="I64" names="/stage3/stage3.1/Gather_2_output_0" />
			</output>
		</layer>
		<layer id="304" name="/stage3/stage3.1/Div_1" type="Divide" version="opset1">
			<data auto_broadcast="numpy" m_pythondiv="true" />
			<input>
				<port id="0" precision="I64" />
				<port id="1" precision="I64" />
			</input>
			<output>
				<port id="2" precision="I64" names="/stage3/stage3.1/Div_1_output_0" />
			</output>
		</layer>
		<layer id="305" name="/stage3/stage3.1/Unsqueeze_1" type="Unsqueeze" version="opset1">
			<input>
				<port id="0" precision="I64" />
				<port id="1" precision="I64">
					<dim>1</dim>
				</port>
			</input>
			<output>
				<port id="2" precision="I64" names="/stage3/stage3.1/Unsqueeze_1_output_0">
					<dim>1</dim>
				</port>
			</output>
		</layer>
		<layer id="306" name="Constant_23313" type="Const" version="opset1">
			<data element_type="i64" shape="2" offset="8940" size="16" />
			<output>
				<port id="0" precision="I64">
					<dim>2</dim>
				</port>
			</output>
		</layer>
		<layer id="307" name="Constant_23314" type="Const" version="opset1">
			<data element_type="i64" shape="" offset="5984" size="8" />
			<output>
				<port id="0" precision="I64" />
			</output>
		</layer>
		<layer id="308" name="Gather_23315" type="Gather" version="opset8">
			<data batch_dims="0" />
			<input>
				<port id="0" precision="I64">
					<dim>4</dim>
				</port>
				<port id="1" precision="I64">
					<dim>2</dim>
				</port>
				<port id="2" precision="I64" />
			</input>
			<output>
				<port id="3" precision="I64">
					<dim>2</dim>
				</port>
			</output>
		</layer>
		<layer id="309" name="/stage3/stage3.1/Concat_1" type="Concat" version="opset1">
			<data axis="0" />
			<input>
				<port id="0" precision="I64">
					<dim>1</dim>
				</port>
				<port id="1" precision="I64">
					<dim>1</dim>
				</port>
				<port id="2" precision="I64">
					<dim>1</dim>
				</port>
				<port id="3" precision="I64">
					<dim>2</dim>
				</port>
			</input>
			<output>
				<port id="4" precision="I64">
					<dim>5</dim>
				</port>
			</output>
		</layer>
		<layer id="310" name="/stage3/stage3.1/Reshape" type="Reshape" version="opset1">
			<data special_zero="true" />
			<input>
				<port id="0" precision="FP16">
					<dim>-1</dim>
					<dim>-1</dim>
					<dim>14</dim>
					<dim>14</dim>
				</port>
				<port id="1" precision="I64">
					<dim>5</dim>
				</port>
			</input>
			<output>
				<port id="2" precision="FP16" names="/stage3/stage3.1/Reshape_output_0">
					<dim>-1</dim>
					<dim>2</dim>
					<dim>-1</dim>
					<dim>14</dim>
					<dim>14</dim>
				</port>
			</output>
		</layer>
		<layer id="311" name="Constant_2346" type="Const" version="opset1">
			<data element_type="i64" shape="5" offset="5944" size="40" />
			<output>
				<port id="0" precision="I64">
					<dim>5</dim>
				</port>
			</output>
		</layer>
		<layer id="312" name="/stage3/stage3.1/Transpose" type="Transpose" version="opset1">
			<input>
				<port id="0" precision="FP16">
					<dim>-1</dim>
					<dim>2</dim>
					<dim>-1</dim>
					<dim>14</dim>
					<dim>14</dim>
				</port>
				<port id="1" precision="I64">
					<dim>5</dim>
				</port>
			</input>
			<output>
				<port id="2" precision="FP16" names="/stage3/stage3.1/Transpose_output_0">
					<dim>-1</dim>
					<dim>-1</dim>
					<dim>2</dim>
					<dim>14</dim>
					<dim>14</dim>
				</port>
			</output>
		</layer>
		<layer id="313" name="Constant_23078" type="Const" version="opset1">
			<data element_type="i64" shape="1" offset="5984" size="8" />
			<output>
				<port id="0" precision="I64">
					<dim>1</dim>
				</port>
			</output>
		</layer>
		<layer id="314" name="Constant_2287" type="Const" version="opset1">
			<data element_type="i64" shape="" offset="5984" size="8" />
			<output>
				<port id="0" precision="I64" />
			</output>
		</layer>
		<layer id="315" name="/stage3/stage3.1/Gather_1" type="Gather" version="opset8">
			<data batch_dims="0" />
			<input>
				<port id="0" precision="I64">
					<dim>4</dim>
				</port>
				<port id="1" precision="I64">
					<dim>1</dim>
				</port>
				<port id="2" precision="I64" />
			</input>
			<output>
				<port id="3" precision="I64" names="/stage3/stage3.1/Unsqueeze_output_0">
					<dim>1</dim>
				</port>
			</output>
		</layer>
		<layer id="316" name="Constant_23318" type="Const" version="opset1">
			<data element_type="i64" shape="2" offset="8940" size="16" />
			<output>
				<port id="0" precision="I64">
					<dim>2</dim>
				</port>
			</output>
		</layer>
		<layer id="317" name="Constant_23319" type="Const" version="opset1">
			<data element_type="i64" shape="" offset="5984" size="8" />
			<output>
				<port id="0" precision="I64" />
			</output>
		</layer>
		<layer id="318" name="Gather_23320" type="Gather" version="opset8">
			<data batch_dims="0" />
			<input>
				<port id="0" precision="I64">
					<dim>4</dim>
				</port>
				<port id="1" precision="I64">
					<dim>2</dim>
				</port>
				<port id="2" precision="I64" />
			</input>
			<output>
				<port id="3" precision="I64">
					<dim>2</dim>
				</port>
			</output>
		</layer>
		<layer id="319" name="/stage3/stage3.1/Concat_2" type="Concat" version="opset1">
			<data axis="0" />
			<input>
				<port id="0" precision="I64">
					<dim>1</dim>
				</port>
				<port id="1" precision="I64">
					<dim>1</dim>
				</port>
				<port id="2" precision="I64">
					<dim>2</dim>
				</port>
			</input>
			<output>
				<port id="3" precision="I64" names="/stage3/stage3.1/Concat_2_output_0">
					<dim>4</dim>
				</port>
			</output>
		</layer>
		<layer id="320" name="/stage3/stage3.1/Reshape_1" type="Reshape" version="opset1">
			<data special_zero="true" />
			<input>
				<port id="0" precision="FP16">
					<dim>-1</dim>
					<dim>-1</dim>
					<dim>2</dim>
					<dim>14</dim>
					<dim>14</dim>
				</port>
				<port id="1" precision="I64">
					<dim>4</dim>
				</port>
			</input>
			<output>
				<port id="2" precision="FP16" names="/stage3/stage3.1/Reshape_1_output_0">
					<dim>-1</dim>
					<dim>-1</dim>
					<dim>14</dim>
					<dim>14</dim>
				</port>
			</output>
		</layer>
		<layer id="321" name="Constant_33864" type="Const" version="opset1">
			<data element_type="i64" shape="2" offset="6008" size="16" />
			<output>
				<port id="0" precision="I64">
					<dim>2</dim>
				</port>
			</output>
		</layer>
		<layer id="322" name="Constant_33865" type="Const" version="opset1">
			<data element_type="i64" shape="2" offset="6008" size="16" />
			<output>
				<port id="0" precision="I64">
					<dim>2</dim>
				</port>
			</output>
		</layer>
		<layer id="323" name="Constant_33861" type="Const" version="opset1">
			<data element_type="i64" shape="1" offset="6024" size="8" />
			<output>
				<port id="0" precision="I64">
					<dim>1</dim>
				</port>
			</output>
		</layer>
		<layer id="324" name="/stage3/stage3.2/Shape" type="ShapeOf" version="opset3">
			<data output_type="i64" />
			<input>
				<port id="0" precision="FP16">
					<dim>-1</dim>
					<dim>-1</dim>
					<dim>14</dim>
					<dim>14</dim>
				</port>
			</input>
			<output>
				<port id="1" precision="I64" names="/stage3/stage3.2/Shape_output_0">
					<dim>4</dim>
				</port>
			</output>
		</layer>
		<layer id="325" name="Constant_2357" type="Const" version="opset1">
			<data element_type="i64" shape="" offset="5984" size="8" />
			<output>
				<port id="0" precision="I64" />
			</output>
		</layer>
		<layer id="326" name="/stage3/stage3.2/Gather" type="Gather" version="opset8">
			<data batch_dims="0" />
			<input>
				<port id="0" precision="I64">
					<dim>4</dim>
				</port>
				<port id="1" precision="I64">
					<dim>1</dim>
				</port>
				<port id="2" precision="I64" />
			</input>
			<output>
				<port id="3" precision="I64" names="/stage3/stage3.2/Gather_output_0">
					<dim>1</dim>
				</port>
			</output>
		</layer>
		<layer id="327" name="/stage3/stage3.2/Add" type="Add" version="opset1">
			<data auto_broadcast="numpy" />
			<input>
				<port id="0" precision="I64">
					<dim>1</dim>
				</port>
				<port id="1" precision="I64">
					<dim>1</dim>
				</port>
			</input>
			<output>
				<port id="2" precision="I64" names="/stage3/stage3.2/Add_output_0">
					<dim>1</dim>
				</port>
			</output>
		</layer>
		<layer id="328" name="/stage3/stage3.2/Div" type="Divide" version="opset1">
			<data auto_broadcast="numpy" m_pythondiv="true" />
			<input>
				<port id="0" precision="I64">
					<dim>1</dim>
				</port>
				<port id="1" precision="I64">
					<dim>1</dim>
				</port>
			</input>
			<output>
				<port id="2" precision="I64" names="/stage3/stage3.2/Div_output_0">
					<dim>1</dim>
				</port>
			</output>
		</layer>
		<layer id="329" name="Constant_33860" type="Const" version="opset1">
			<data element_type="i32" shape="1" offset="6040" size="4" />
			<output>
				<port id="0" precision="I32">
					<dim>1</dim>
				</port>
			</output>
		</layer>
		<layer id="330" name="ScatterUpdate_33866" type="ScatterUpdate" version="opset3">
			<input>
				<port id="0" precision="I64">
					<dim>2</dim>
				</port>
				<port id="1" precision="I64">
					<dim>1</dim>
				</port>
				<port id="2" precision="I64">
					<dim>1</dim>
				</port>
				<port id="3" precision="I32">
					<dim>1</dim>
				</port>
			</input>
			<output>
				<port id="4" precision="I64">
					<dim>2</dim>
				</port>
			</output>
		</layer>
		<layer id="331" name="Constant_33869" type="Const" version="opset1">
			<data element_type="i64" shape="2" offset="6044" size="16" />
			<output>
				<port id="0" precision="I64">
					<dim>2</dim>
				</port>
			</output>
		</layer>
		<layer id="332" name="/stage3/stage3.2/Slice" type="StridedSlice" version="opset1">
			<data begin_mask="1, 0" end_mask="1, 0" new_axis_mask="" shrink_axis_mask="" ellipsis_mask="" />
			<input>
				<port id="0" precision="FP16">
					<dim>-1</dim>
					<dim>-1</dim>
					<dim>14</dim>
					<dim>14</dim>
				</port>
				<port id="1" precision="I64">
					<dim>2</dim>
				</port>
				<port id="2" precision="I64">
					<dim>2</dim>
				</port>
				<port id="3" precision="I64">
					<dim>2</dim>
				</port>
			</input>
			<output>
				<port id="4" precision="FP16" names="/stage3/stage3.2/Slice_output_0">
					<dim>-1</dim>
					<dim>-1</dim>
					<dim>14</dim>
					<dim>14</dim>
				</port>
			</output>
		</layer>
		<layer id="333" name="Constant_33973" type="Const" version="opset1">
			<data element_type="i64" shape="2" offset="6008" size="16" />
			<output>
				<port id="0" precision="I64">
					<dim>2</dim>
				</port>
			</output>
		</layer>
		<layer id="334" name="Constant_33972" type="Const" version="opset1">
			<data element_type="i64" shape="1" offset="6024" size="8" />
			<output>
				<port id="0" precision="I64">
					<dim>1</dim>
				</port>
			</output>
		</layer>
		<layer id="335" name="Constant_33971" type="Const" version="opset1">
			<data element_type="i32" shape="1" offset="6040" size="4" />
			<output>
				<port id="0" precision="I32">
					<dim>1</dim>
				</port>
			</output>
		</layer>
		<layer id="336" name="ScatterUpdate_33974" type="ScatterUpdate" version="opset3">
			<input>
				<port id="0" precision="I64">
					<dim>2</dim>
				</port>
				<port id="1" precision="I64">
					<dim>1</dim>
				</port>
				<port id="2" precision="I64">
					<dim>1</dim>
				</port>
				<port id="3" precision="I32">
					<dim>1</dim>
				</port>
			</input>
			<output>
				<port id="4" precision="I64">
					<dim>2</dim>
				</port>
			</output>
		</layer>
		<layer id="337" name="Constant_33975" type="Const" version="opset1">
			<data element_type="i64" shape="2" offset="6008" size="16" />
			<output>
				<port id="0" precision="I64">
					<dim>2</dim>
				</port>
			</output>
		</layer>
		<layer id="338" name="/stage3/stage3.2/Mul_1" type="Multiply" version="opset1">
			<data auto_broadcast="numpy" />
			<input>
				<port id="0" precision="I64">
					<dim>1</dim>
				</port>
				<port id="1" precision="I64">
					<dim>1</dim>
				</port>
			</input>
			<output>
				<port id="2" precision="I64" names="/stage3/stage3.2/Mul_1_output_0">
					<dim>1</dim>
				</port>
			</output>
		</layer>
		<layer id="339" name="ScatterUpdate_33976" type="ScatterUpdate" version="opset3">
			<input>
				<port id="0" precision="I64">
					<dim>2</dim>
				</port>
				<port id="1" precision="I64">
					<dim>1</dim>
				</port>
				<port id="2" precision="I64">
					<dim>1</dim>
				</port>
				<port id="3" precision="I32">
					<dim>1</dim>
				</port>
			</input>
			<output>
				<port id="4" precision="I64">
					<dim>2</dim>
				</port>
			</output>
		</layer>
		<layer id="340" name="Constant_33979" type="Const" version="opset1">
			<data element_type="i64" shape="2" offset="6044" size="16" />
			<output>
				<port id="0" precision="I64">
					<dim>2</dim>
				</port>
			</output>
		</layer>
		<layer id="341" name="/stage3/stage3.2/Slice_1" type="StridedSlice" version="opset1">
			<data begin_mask="1, 0" end_mask="1, 0" new_axis_mask="" shrink_axis_mask="" ellipsis_mask="" />
			<input>
				<port id="0" precision="FP16">
					<dim>-1</dim>
					<dim>-1</dim>
					<dim>14</dim>
					<dim>14</dim>
				</port>
				<port id="1" precision="I64">
					<dim>2</dim>
				</port>
				<port id="2" precision="I64">
					<dim>2</dim>
				</port>
				<port id="3" precision="I64">
					<dim>2</dim>
				</port>
			</input>
			<output>
				<port id="4" precision="FP16" names="/stage3/stage3.2/Slice_1_output_0">
					<dim>-1</dim>
					<dim>-1</dim>
					<dim>14</dim>
					<dim>14</dim>
				</port>
			</output>
		</layer>
		<layer id="342" name="onnx::Conv_1385" type="Const" version="opset1">
			<data element_type="f16" shape="48, 48, 1, 1" offset="41116" size="4608" />
			<output>
				<port id="0" precision="FP16" names="onnx::Conv_1385">
					<dim>48</dim>
					<dim>48</dim>
					<dim>1</dim>
					<dim>1</dim>
				</port>
			</output>
		</layer>
		<layer id="343" name="/stage3/stage3.2/branch2/branch2.0/Conv/WithoutBiases" type="Convolution" version="opset1">
			<data strides="1, 1" dilations="1, 1" pads_begin="0, 0" pads_end="0, 0" auto_pad="explicit" />
			<input>
				<port id="0" precision="FP16">
					<dim>-1</dim>
					<dim>-1</dim>
					<dim>14</dim>
					<dim>14</dim>
				</port>
				<port id="1" precision="FP16">
					<dim>48</dim>
					<dim>48</dim>
					<dim>1</dim>
					<dim>1</dim>
				</port>
			</input>
			<output>
				<port id="2" precision="FP16">
					<dim>-1</dim>
					<dim>48</dim>
					<dim>14</dim>
					<dim>14</dim>
				</port>
			</output>
		</layer>
		<layer id="344" name="Reshape_2645" type="Const" version="opset1">
			<data element_type="f16" shape="1, 48, 1, 1" offset="45724" size="96" />
			<output>
				<port id="0" precision="FP16">
					<dim>1</dim>
					<dim>48</dim>
					<dim>1</dim>
					<dim>1</dim>
				</port>
			</output>
		</layer>
		<layer id="345" name="/stage3/stage3.2/branch2/branch2.0/Conv" type="Add" version="opset1">
			<data auto_broadcast="numpy" />
			<input>
				<port id="0" precision="FP16">
					<dim>-1</dim>
					<dim>48</dim>
					<dim>14</dim>
					<dim>14</dim>
				</port>
				<port id="1" precision="FP16">
					<dim>1</dim>
					<dim>48</dim>
					<dim>1</dim>
					<dim>1</dim>
				</port>
			</input>
			<output>
				<port id="2" precision="FP16" names="/stage3/stage3.2/branch2/branch2.0/Conv_output_0">
					<dim>-1</dim>
					<dim>48</dim>
					<dim>14</dim>
					<dim>14</dim>
				</port>
			</output>
		</layer>
		<layer id="346" name="/stage3/stage3.2/branch2/branch2.2/Relu" type="ReLU" version="opset1">
			<input>
				<port id="0" precision="FP16">
					<dim>-1</dim>
					<dim>48</dim>
					<dim>14</dim>
					<dim>14</dim>
				</port>
			</input>
			<output>
				<port id="1" precision="FP16" names="/stage3/stage3.2/branch2/branch2.2/Relu_output_0">
					<dim>-1</dim>
					<dim>48</dim>
					<dim>14</dim>
					<dim>14</dim>
				</port>
			</output>
		</layer>
		<layer id="347" name="Reshape_2657" type="Const" version="opset1">
			<data element_type="f16" shape="48, 1, 1, 3, 3" offset="45820" size="864" />
			<output>
				<port id="0" precision="FP16">
					<dim>48</dim>
					<dim>1</dim>
					<dim>1</dim>
					<dim>3</dim>
					<dim>3</dim>
				</port>
			</output>
		</layer>
		<layer id="348" name="/stage3/stage3.2/branch2/branch2.3/Conv/WithoutBiases" type="GroupConvolution" version="opset1">
			<data strides="1, 1" pads_begin="1, 1" pads_end="1, 1" dilations="1, 1" auto_pad="explicit" />
			<input>
				<port id="0" precision="FP16">
					<dim>-1</dim>
					<dim>48</dim>
					<dim>14</dim>
					<dim>14</dim>
				</port>
				<port id="1" precision="FP16">
					<dim>48</dim>
					<dim>1</dim>
					<dim>1</dim>
					<dim>3</dim>
					<dim>3</dim>
				</port>
			</input>
			<output>
				<port id="2" precision="FP16">
					<dim>-1</dim>
					<dim>48</dim>
					<dim>14</dim>
					<dim>14</dim>
				</port>
			</output>
		</layer>
		<layer id="349" name="Reshape_2709" type="Const" version="opset1">
			<data element_type="f16" shape="1, 48, 1, 1" offset="46684" size="96" />
			<output>
				<port id="0" precision="FP16">
					<dim>1</dim>
					<dim>48</dim>
					<dim>1</dim>
					<dim>1</dim>
				</port>
			</output>
		</layer>
		<layer id="350" name="/stage3/stage3.2/branch2/branch2.3/Conv" type="Add" version="opset1">
			<data auto_broadcast="numpy" />
			<input>
				<port id="0" precision="FP16">
					<dim>-1</dim>
					<dim>48</dim>
					<dim>14</dim>
					<dim>14</dim>
				</port>
				<port id="1" precision="FP16">
					<dim>1</dim>
					<dim>48</dim>
					<dim>1</dim>
					<dim>1</dim>
				</port>
			</input>
			<output>
				<port id="2" precision="FP16" names="/stage3/stage3.2/branch2/branch2.3/Conv_output_0">
					<dim>-1</dim>
					<dim>48</dim>
					<dim>14</dim>
					<dim>14</dim>
				</port>
			</output>
		</layer>
		<layer id="351" name="onnx::Conv_1391" type="Const" version="opset1">
			<data element_type="f16" shape="48, 48, 1, 1" offset="46780" size="4608" />
			<output>
				<port id="0" precision="FP16" names="onnx::Conv_1391">
					<dim>48</dim>
					<dim>48</dim>
					<dim>1</dim>
					<dim>1</dim>
				</port>
			</output>
		</layer>
		<layer id="352" name="/stage3/stage3.2/branch2/branch2.5/Conv/WithoutBiases" type="Convolution" version="opset1">
			<data strides="1, 1" dilations="1, 1" pads_begin="0, 0" pads_end="0, 0" auto_pad="explicit" />
			<input>
				<port id="0" precision="FP16">
					<dim>-1</dim>
					<dim>48</dim>
					<dim>14</dim>
					<dim>14</dim>
				</port>
				<port id="1" precision="FP16">
					<dim>48</dim>
					<dim>48</dim>
					<dim>1</dim>
					<dim>1</dim>
				</port>
			</input>
			<output>
				<port id="2" precision="FP16">
					<dim>-1</dim>
					<dim>48</dim>
					<dim>14</dim>
					<dim>14</dim>
				</port>
			</output>
		</layer>
		<layer id="353" name="Reshape_2724" type="Const" version="opset1">
			<data element_type="f16" shape="1, 48, 1, 1" offset="51388" size="96" />
			<output>
				<port id="0" precision="FP16">
					<dim>1</dim>
					<dim>48</dim>
					<dim>1</dim>
					<dim>1</dim>
				</port>
			</output>
		</layer>
		<layer id="354" name="/stage3/stage3.2/branch2/branch2.5/Conv" type="Add" version="opset1">
			<data auto_broadcast="numpy" />
			<input>
				<port id="0" precision="FP16">
					<dim>-1</dim>
					<dim>48</dim>
					<dim>14</dim>
					<dim>14</dim>
				</port>
				<port id="1" precision="FP16">
					<dim>1</dim>
					<dim>48</dim>
					<dim>1</dim>
					<dim>1</dim>
				</port>
			</input>
			<output>
				<port id="2" precision="FP16" names="/stage3/stage3.2/branch2/branch2.5/Conv_output_0">
					<dim>-1</dim>
					<dim>48</dim>
					<dim>14</dim>
					<dim>14</dim>
				</port>
			</output>
		</layer>
		<layer id="355" name="/stage3/stage3.2/branch2/branch2.7/Relu" type="ReLU" version="opset1">
			<input>
				<port id="0" precision="FP16">
					<dim>-1</dim>
					<dim>48</dim>
					<dim>14</dim>
					<dim>14</dim>
				</port>
			</input>
			<output>
				<port id="1" precision="FP16" names="/stage3/stage3.2/branch2/branch2.7/Relu_output_0">
					<dim>-1</dim>
					<dim>48</dim>
					<dim>14</dim>
					<dim>14</dim>
				</port>
			</output>
		</layer>
		<layer id="356" name="/stage3/stage3.2/Concat" type="Concat" version="opset1">
			<data axis="1" />
			<input>
				<port id="0" precision="FP16">
					<dim>-1</dim>
					<dim>-1</dim>
					<dim>14</dim>
					<dim>14</dim>
				</port>
				<port id="1" precision="FP16">
					<dim>-1</dim>
					<dim>48</dim>
					<dim>14</dim>
					<dim>14</dim>
				</port>
			</input>
			<output>
				<port id="2" precision="FP16" names="/stage3/stage3.2/Concat_output_0">
					<dim>-1</dim>
					<dim>-1</dim>
					<dim>14</dim>
					<dim>14</dim>
				</port>
			</output>
		</layer>
		<layer id="357" name="Constant_27769" type="Const" version="opset1">
			<data element_type="i64" shape="1" offset="5984" size="8" />
			<output>
				<port id="0" precision="I64">
					<dim>1</dim>
				</port>
			</output>
		</layer>
		<layer id="358" name="/stage3/stage3.2/Shape_1" type="ShapeOf" version="opset3">
			<data output_type="i64" />
			<input>
				<port id="0" precision="FP16">
					<dim>-1</dim>
					<dim>-1</dim>
					<dim>14</dim>
					<dim>14</dim>
				</port>
			</input>
			<output>
				<port id="1" precision="I64" names="/stage3/stage3.2/Shape_1_output_0">
					<dim>4</dim>
				</port>
			</output>
		</layer>
		<layer id="359" name="Constant_2733" type="Const" version="opset1">
			<data element_type="i64" shape="" offset="5984" size="8" />
			<output>
				<port id="0" precision="I64" />
			</output>
		</layer>
		<layer id="360" name="/stage3/stage3.2/Gather_2" type="Gather" version="opset8">
			<data batch_dims="0" />
			<input>
				<port id="0" precision="I64">
					<dim>4</dim>
				</port>
				<port id="1" precision="I64" />
				<port id="2" precision="I64" />
			</input>
			<output>
				<port id="3" precision="I64" names="/stage3/stage3.2/Gather_2_output_0" />
			</output>
		</layer>
		<layer id="361" name="/stage3/stage3.2/Div_1" type="Divide" version="opset1">
			<data auto_broadcast="numpy" m_pythondiv="true" />
			<input>
				<port id="0" precision="I64" />
				<port id="1" precision="I64" />
			</input>
			<output>
				<port id="2" precision="I64" names="/stage3/stage3.2/Div_1_output_0" />
			</output>
		</layer>
		<layer id="362" name="/stage3/stage3.2/Unsqueeze_1" type="Unsqueeze" version="opset1">
			<input>
				<port id="0" precision="I64" />
				<port id="1" precision="I64">
					<dim>1</dim>
				</port>
			</input>
			<output>
				<port id="2" precision="I64" names="/stage3/stage3.2/Unsqueeze_1_output_0">
					<dim>1</dim>
				</port>
			</output>
		</layer>
		<layer id="363" name="Constant_23323" type="Const" version="opset1">
			<data element_type="i64" shape="2" offset="8940" size="16" />
			<output>
				<port id="0" precision="I64">
					<dim>2</dim>
				</port>
			</output>
		</layer>
		<layer id="364" name="Constant_23324" type="Const" version="opset1">
			<data element_type="i64" shape="" offset="5984" size="8" />
			<output>
				<port id="0" precision="I64" />
			</output>
		</layer>
		<layer id="365" name="Gather_23325" type="Gather" version="opset8">
			<data batch_dims="0" />
			<input>
				<port id="0" precision="I64">
					<dim>4</dim>
				</port>
				<port id="1" precision="I64">
					<dim>2</dim>
				</port>
				<port id="2" precision="I64" />
			</input>
			<output>
				<port id="3" precision="I64">
					<dim>2</dim>
				</port>
			</output>
		</layer>
		<layer id="366" name="/stage3/stage3.2/Concat_1" type="Concat" version="opset1">
			<data axis="0" />
			<input>
				<port id="0" precision="I64">
					<dim>1</dim>
				</port>
				<port id="1" precision="I64">
					<dim>1</dim>
				</port>
				<port id="2" precision="I64">
					<dim>1</dim>
				</port>
				<port id="3" precision="I64">
					<dim>2</dim>
				</port>
			</input>
			<output>
				<port id="4" precision="I64">
					<dim>5</dim>
				</port>
			</output>
		</layer>
		<layer id="367" name="/stage3/stage3.2/Reshape" type="Reshape" version="opset1">
			<data special_zero="true" />
			<input>
				<port id="0" precision="FP16">
					<dim>-1</dim>
					<dim>-1</dim>
					<dim>14</dim>
					<dim>14</dim>
				</port>
				<port id="1" precision="I64">
					<dim>5</dim>
				</port>
			</input>
			<output>
				<port id="2" precision="FP16" names="/stage3/stage3.2/Reshape_output_0">
					<dim>-1</dim>
					<dim>2</dim>
					<dim>-1</dim>
					<dim>14</dim>
					<dim>14</dim>
				</port>
			</output>
		</layer>
		<layer id="368" name="Constant_2790" type="Const" version="opset1">
			<data element_type="i64" shape="5" offset="5944" size="40" />
			<output>
				<port id="0" precision="I64">
					<dim>5</dim>
				</port>
			</output>
		</layer>
		<layer id="369" name="/stage3/stage3.2/Transpose" type="Transpose" version="opset1">
			<input>
				<port id="0" precision="FP16">
					<dim>-1</dim>
					<dim>2</dim>
					<dim>-1</dim>
					<dim>14</dim>
					<dim>14</dim>
				</port>
				<port id="1" precision="I64">
					<dim>5</dim>
				</port>
			</input>
			<output>
				<port id="2" precision="FP16" names="/stage3/stage3.2/Transpose_output_0">
					<dim>-1</dim>
					<dim>-1</dim>
					<dim>2</dim>
					<dim>14</dim>
					<dim>14</dim>
				</port>
			</output>
		</layer>
		<layer id="370" name="Constant_23096" type="Const" version="opset1">
			<data element_type="i64" shape="1" offset="5984" size="8" />
			<output>
				<port id="0" precision="I64">
					<dim>1</dim>
				</port>
			</output>
		</layer>
		<layer id="371" name="Constant_2731" type="Const" version="opset1">
			<data element_type="i64" shape="" offset="5984" size="8" />
			<output>
				<port id="0" precision="I64" />
			</output>
		</layer>
		<layer id="372" name="/stage3/stage3.2/Gather_1" type="Gather" version="opset8">
			<data batch_dims="0" />
			<input>
				<port id="0" precision="I64">
					<dim>4</dim>
				</port>
				<port id="1" precision="I64">
					<dim>1</dim>
				</port>
				<port id="2" precision="I64" />
			</input>
			<output>
				<port id="3" precision="I64" names="/stage3/stage3.2/Unsqueeze_output_0">
					<dim>1</dim>
				</port>
			</output>
		</layer>
		<layer id="373" name="Constant_23328" type="Const" version="opset1">
			<data element_type="i64" shape="2" offset="8940" size="16" />
			<output>
				<port id="0" precision="I64">
					<dim>2</dim>
				</port>
			</output>
		</layer>
		<layer id="374" name="Constant_23329" type="Const" version="opset1">
			<data element_type="i64" shape="" offset="5984" size="8" />
			<output>
				<port id="0" precision="I64" />
			</output>
		</layer>
		<layer id="375" name="Gather_23330" type="Gather" version="opset8">
			<data batch_dims="0" />
			<input>
				<port id="0" precision="I64">
					<dim>4</dim>
				</port>
				<port id="1" precision="I64">
					<dim>2</dim>
				</port>
				<port id="2" precision="I64" />
			</input>
			<output>
				<port id="3" precision="I64">
					<dim>2</dim>
				</port>
			</output>
		</layer>
		<layer id="376" name="/stage3/stage3.2/Concat_2" type="Concat" version="opset1">
			<data axis="0" />
			<input>
				<port id="0" precision="I64">
					<dim>1</dim>
				</port>
				<port id="1" precision="I64">
					<dim>1</dim>
				</port>
				<port id="2" precision="I64">
					<dim>2</dim>
				</port>
			</input>
			<output>
				<port id="3" precision="I64" names="/stage3/stage3.2/Concat_2_output_0">
					<dim>4</dim>
				</port>
			</output>
		</layer>
		<layer id="377" name="/stage3/stage3.2/Reshape_1" type="Reshape" version="opset1">
			<data special_zero="true" />
			<input>
				<port id="0" precision="FP16">
					<dim>-1</dim>
					<dim>-1</dim>
					<dim>2</dim>
					<dim>14</dim>
					<dim>14</dim>
				</port>
				<port id="1" precision="I64">
					<dim>4</dim>
				</port>
			</input>
			<output>
				<port id="2" precision="FP16" names="/stage3/stage3.2/Reshape_1_output_0">
					<dim>-1</dim>
					<dim>-1</dim>
					<dim>14</dim>
					<dim>14</dim>
				</port>
			</output>
		</layer>
		<layer id="378" name="Constant_34241" type="Const" version="opset1">
			<data element_type="i64" shape="2" offset="6008" size="16" />
			<output>
				<port id="0" precision="I64">
					<dim>2</dim>
				</port>
			</output>
		</layer>
		<layer id="379" name="Constant_34242" type="Const" version="opset1">
			<data element_type="i64" shape="2" offset="6008" size="16" />
			<output>
				<port id="0" precision="I64">
					<dim>2</dim>
				</port>
			</output>
		</layer>
		<layer id="380" name="Constant_34238" type="Const" version="opset1">
			<data element_type="i64" shape="1" offset="6024" size="8" />
			<output>
				<port id="0" precision="I64">
					<dim>1</dim>
				</port>
			</output>
		</layer>
		<layer id="381" name="/stage3/stage3.3/Shape" type="ShapeOf" version="opset3">
			<data output_type="i64" />
			<input>
				<port id="0" precision="FP16">
					<dim>-1</dim>
					<dim>-1</dim>
					<dim>14</dim>
					<dim>14</dim>
				</port>
			</input>
			<output>
				<port id="1" precision="I64" names="/stage3/stage3.3/Shape_output_0">
					<dim>4</dim>
				</port>
			</output>
		</layer>
		<layer id="382" name="Constant_2801" type="Const" version="opset1">
			<data element_type="i64" shape="" offset="5984" size="8" />
			<output>
				<port id="0" precision="I64" />
			</output>
		</layer>
		<layer id="383" name="/stage3/stage3.3/Gather" type="Gather" version="opset8">
			<data batch_dims="0" />
			<input>
				<port id="0" precision="I64">
					<dim>4</dim>
				</port>
…
		<edge from-layer="273" from-port="4" to-layer="275" to-port="2" />
		<edge from-layer="274" from-port="0" to-layer="275" to-port="3" />
		<edge from-layer="275" from-port="4" to-layer="299" to-port="0" />
		<edge from-layer="276" from-port="0" to-layer="279" to-port="0" />
		<edge from-layer="277" from-port="0" to-layer="282" to-port="1" />
		<edge from-layer="277" from-port="0" to-layer="279" to-port="1" />
		<edge from-layer="278" from-port="0" to-layer="282" to-port="3" />
		<edge from-layer="278" from-port="0" to-layer="279" to-port="3" />
		<edge from-layer="279" from-port="4" to-layer="284" to-port="1" />
		<edge from-layer="280" from-port="0" to-layer="282" to-port="0" />
		<edge from-layer="281" from-port="2" to-layer="282" to-port="2" />
		<edge from-layer="282" from-port="4" to-layer="284" to-port="2" />
		<edge from-layer="283" from-port="0" to-layer="284" to-port="3" />
		<edge from-layer="284" from-port="4" to-layer="286" to-port="0" />
		<edge from-layer="285" from-port="0" to-layer="286" to-port="1" />
		<edge from-layer="286" from-port="2" to-layer="288" to-port="0" />
		<edge from-layer="287" from-port="0" to-layer="288" to-port="1" />
		<edge from-layer="288" from-port="2" to-layer="289" to-port="0" />
		<edge from-layer="289" from-port="1" to-layer="291" to-port="0" />
		<edge from-layer="290" from-port="0" to-layer="291" to-port="1" />
		<edge from-layer="291" from-port="2" to-layer="293" to-port="0" />
		<edge from-layer="292" from-port="0" to-layer="293" to-port="1" />
		<edge from-layer="293" from-port="2" to-layer="295" to-port="0" />
		<edge from-layer="294" from-port="0" to-layer="295" to-port="1" />
		<edge from-layer="295" from-port="2" to-layer="297" to-port="0" />
		<edge from-layer="296" from-port="0" to-layer="297" to-port="1" />
		<edge from-layer="297" from-port="2" to-layer="298" to-port="0" />
		<edge from-layer="298" from-port="1" to-layer="299" to-port="1" />
		<edge from-layer="299" from-port="2" to-layer="301" to-port="0" />
		<edge from-layer="299" from-port="2" to-layer="310" to-port="0" />
		<edge from-layer="300" from-port="0" to-layer="309" to-port="0" />
		<edge from-layer="301" from-port="1" to-layer="308" to-port="0" />
		<edge from-layer="301" from-port="1" to-layer="315" to-port="0" />
		<edge from-layer="301" from-port="1" to-layer="318" to-port="0" />
		<edge from-layer="301" from-port="1" to-layer="303" to-port="0" />
		<edge from-layer="302" from-port="0" to-layer="303" to-port="2" />
		<edge from-layer="303" from-port="3" to-layer="304" to-port="0" />
		<edge from-layer="304" from-port="2" to-layer="305" to-port="0" />
		<edge from-layer="305" from-port="2" to-layer="309" to-port="2" />
		<edge from-layer="306" from-port="0" to-layer="308" to-port="1" />
		<edge from-layer="307" from-port="0" to-layer="308" to-port="2" />
		<edge from-layer="308" from-port="3" to-layer="309" to-port="3" />
		<edge from-layer="309" from-port="4" to-layer="310" to-port="1" />
		<edge from-layer="310" from-port="2" to-layer="312" to-port="0" />
		<edge from-layer="311" from-port="0" to-layer="312" to-port="1" />
		<edge from-layer="312" from-port="2" to-layer="320" to-port="0" />
		<edge from-layer="313" from-port="0" to-layer="315" to-port="1" />
		<edge from-layer="314" from-port="0" to-layer="315" to-port="2" />
		<edge from-layer="315" from-port="3" to-layer="319" to-port="0" />
		<edge from-layer="316" from-port="0" to-layer="318" to-port="1" />
		<edge from-layer="317" from-port="0" to-layer="318" to-port="2" />
		<edge from-layer="318" from-port="3" to-layer="319" to-port="2" />
		<edge from-layer="319" from-port="3" to-layer="320" to-port="1" />
		<edge from-layer="320" from-port="2" to-layer="341" to-port="0" />
		<edge from-layer="320" from-port="2" to-layer="332" to-port="0" />
		<edge from-layer="320" from-port="2" to-layer="324" to-port="0" />
		<edge from-layer="321" from-port="0" to-layer="332" to-port="1" />
		<edge from-layer="322" from-port="0" to-layer="330" to-port="0" />
		<edge from-layer="323" from-port="0" to-layer="330" to-port="1" />
		<edge from-layer="324" from-port="1" to-layer="326" to-port="0" />
		<edge from-layer="325" from-port="0" to-layer="326" to-port="2" />
		<edge from-layer="326" from-port="3" to-layer="327" to-port="0" />
		<edge from-layer="327" from-port="2" to-layer="328" to-port="0" />
		<edge from-layer="328" from-port="2" to-layer="338" to-port="0" />
		<edge from-layer="328" from-port="2" to-layer="336" to-port="2" />
		<edge from-layer="328" from-port="2" to-layer="330" to-port="2" />
		<edge from-layer="329" from-port="0" to-layer="330" to-port="3" />
		<edge from-layer="330" from-port="4" to-layer="332" to-port="2" />
		<edge from-layer="331" from-port="0" to-layer="332" to-port="3" />
		<edge from-layer="332" from-port="4" to-layer="356" to-port="0" />
		<edge from-layer="333" from-port="0" to-layer="336" to-port="0" />
		<edge from-layer="334" from-port="0" to-layer="339" to-port="1" />
		<edge from-layer="334" from-port="0" to-layer="336" to-port="1" />
		<edge from-layer="335" from-port="0" to-layer="339" to-port="3" />
		<edge from-layer="335" from-port="0" to-layer="336" to-port="3" />
		<edge from-layer="336" from-port="4" to-layer="341" to-port="1" />
		<edge from-layer="337" from-port="0" to-layer="339" to-port="0" />
		<edge from-layer="338" from-port="2" to-layer="339" to-port="2" />
		<edge from-layer="339" from-port="4" to-layer="341" to-port="2" />
		<edge from-layer="340" from-port="0" to-layer="341" to-port="3" />
		<edge from-layer="341" from-port="4" to-layer="343" to-port="0" />
		<edge from-layer="342" from-port="0" to-layer="343" to-port="1" />
		<edge from-layer="343" from-port="2" to-layer="345" to-port="0" />
		<edge from-layer="344" from-port="0" to-layer="345" to-port="1" />
		<edge from-layer="345" from-port="2" to-layer="346" to-port="0" />
		<edge from-layer="346" from-port="1" to-layer="348" to-port="0" />
		<edge from-layer="347" from-port="0" to-layer="348" to-port="1" />
		<edge from-layer="348" from-port="2" to-layer="350" to-port="0" />
		<edge from-layer="349" from-port="0" to-layer="350" to-port="1" />
		<edge from-layer="350" from-port="2" to-layer="352" to-port="0" />
		<edge from-layer="351" from-port="0" to-layer="352" to-port="1" />
		<edge from-layer="352" from-port="2" to-layer="354" to-port="0" />
		<edge from-layer="353" from-port="0" to-layer="354" to-port="1" />
		<edge from-layer="354" from-port="2" to-layer="355" to-port="0" />
		<edge from-layer="355" from-port="1" to-layer="356" to-port="1" />
		<edge from-layer="356" from-port="2" to-layer="358" to-port="0" />
		<edge from-layer="356" from-port="2" to-layer="367" to-port="0" />
		<edge from-layer="357" from-port="0" to-layer="366" to-port="0" />
		<edge from-layer="358" from-port="1" to-layer="360" to-port="0" />
		<edge from-layer="358" from-port="1" to-layer="365" to-port="0" />
		<edge from-layer="358" from-port="1" to-layer="372" to-port="0" />
		<edge from-layer="358" from-port="1" to-layer="375" to-port="0" />
		<edge from-layer="359" from-port="0" to-layer="360" to-port="2" />
		<edge from-layer="360" from-port="3" to-layer="361" to-port="0" />
		<edge from-layer="361" from-port="2" to-layer="362" to-port="0" />
		<edge from-layer="362" from-port="2" to-layer="366" to-port="2" />
		<edge from-layer="363" from-port="0" to-layer="365" to-port="1" />
		<edge from-layer="364" from-port="0" to-layer="365" to-port="2" />
		<edge from-layer="365" from-port="3" to-layer="366" to-port="3" />
		<edge from-layer="366" from-port="4" to-layer="367" to-port="1" />
		<edge from-layer="367" from-port="2" to-layer="369" to-port="0" />
		<edge from-layer="368" from-port="0" to-layer="369" to-port="1" />
		<edge from-layer="369" from-port="2" to-layer="377" to-port="0" />
		<edge from-layer="370" from-port="0" to-layer="372" to-port="1" />
		<edge from-layer="371" from-port="0" to-layer="372" to-port="2" />
		<edge from-layer="372" from-port="3" to-layer="376" to-port="0" />
		<edge from-layer="373" from-port="0" to-layer="375" to-port="1" />
		<edge from-layer="374" from-port="0" to-layer="375" to-port="2" />
		<edge from-layer="375" from-port="3" to-layer="376" to-port="2" />
		<edge from-layer="376" from-port="3" to-layer="377" to-port="1" />
		<edge from-layer="377" from-port="2" to-layer="381" to-port="0" />
		<edge from-layer="377" from-port="2" to-layer="398" to-port="0" />
		<edge from-layer="377" from-port="2" to-layer="389" to-port="0" />
		<edge from-layer="378" from-port="0" to-layer="389" to-port="1" />
		<edge from-layer="379" from-port="0" to-layer="387" to-port="0" />
		<edge from-layer="380" from-port="0" to-layer="387" to-port="1" />
		<edge from-layer="381" from-port="1" to-layer="383" to-port="0" />
		<edge from-layer="382" from-port="0" to-layer="383" to-port="2" />
		<edge from-layer="383" from-port="3" to-layer="384" to-port="0" />
		<edge from-layer="384" from-port="2" to-layer="385" to-port="0" />
		<edge from-layer="385" from-port="2" to-layer="387" to-port="2" />
		<edge from-layer="385" from-port="2" to-layer="393" to-port="2" />
		<edge from-layer="385" from-port="2" to-layer="395" to-port="0" />
		<edge from-layer="386" from-port="0" to-layer="387" to-port="3" />
		<edge from-layer="387" from-port="4" to-layer="389" to-port="2" />
		<edge from-layer="388" from-port="0" to-layer="389" to-port="3" />
		<edge from-layer="389" from-port="4" to-layer="413" to-port="0" />
		<edge from-layer="390" from-port="0" to-layer="393" to-port="0" />
		<edge from-layer="391" from-port="0" to-layer="393" to-port="1" />
		<edge from-layer="391" from-port="0" to-layer="396" to-port="1" />
		<edge from-layer="392" from-port="0" to-layer="393" to-port="3" />
		<edge from-layer="392" from-port="0" to-layer="396" to-port="3" />
		<edge from-layer="393" from-port="4" to-layer="398" to-port="1" />
		<edge from-layer="394" from-port="0" to-layer="396" to-port="0" />
		<edge from-layer="395" from-port="2" to-layer="396" to-port="2" />
		<edge from-layer="396" from-port="4" to-layer="398" to-port="2" />
		<edge from-layer="397" from-port="0" to-layer="398" to-port="3" />
		<edge from-layer="398" from-port="4" to-layer="400" to-port="0" />
		<edge from-layer="399" from-port="0" to-layer="400" to-port="1" />
		<edge from-layer="400" from-port="2" to-layer="402" to-port="0" />
		<edge from-layer="401" from-port="0" to-layer="402" to-port="1" />
		<edge from-layer="402" from-port="2" to-layer="403" to-port="0" />
		<edge from-layer="403" from-port="1" to-layer="405" to-port="0" />
		<edge from-layer="404" from-port="0" to-layer="405" to-port="1" />
		<edge from-layer="405" from-port="2" to-layer="407" to-port="0" />
		<edge from-layer="406" from-port="0" to-layer="407" to-port="1" />
		<edge from-layer="407" from-port="2" to-layer="409" to-port="0" />
		<edge from-layer="408" from-port="0" to-layer="409" to-port="1" />
		<edge from-layer="409" from-port="2" to-layer="411" to-port="0" />
		<edge from-layer="410" from-port="0" to-layer="411" to-port="1" />
		<edge from-layer="411" from-port="2" to-layer="412" to-port="0" />
		<edge from-layer="412" from-port="1" to-layer="413" to-port="1" />
		<edge from-layer="413" from-port="2" to-layer="424" to-port="0" />
		<edge from-layer="413" from-port="2" to-layer="415" to-port="0" />
		<edge from-layer="414" from-port="0" to-layer="423" to-port="0" />
		<edge from-layer="415" from-port="1" to-layer="422" to-port="0" />
		<edge from-layer="415" from-port="1" to-layer="432" to-port="0" />
		<edge from-layer="415" from-port="1" to-layer="417" to-port="0" />
		<edge from-layer="415" from-port="1" to-layer="429" to-port="0" />
		<edge from-layer="416" from-port="0" to-layer="417" to-port="2" />
		<edge from-layer="417" from-port="3" to-layer="418" to-port="0" />
		<edge from-layer="418" from-port="2" to-layer="419" to-port="0" />
		<edge from-layer="419" from-port="2" to-layer="423" to-port="2" />
		<edge from-layer="420" from-port="0" to-layer="422" to-port="1" />
		<edge from-layer="421" from-port="0" to-layer="422" to-port="2" />
		<edge from-layer="422" from-port="3" to-layer="423" to-port="3" />
		<edge from-layer="423" from-port="4" to-layer="424" to-port="1" />
		<edge from-layer="424" from-port="2" to-layer="426" to-port="0" />
		<edge from-layer="425" from-port="0" to-layer="426" to-port="1" />
		<edge from-layer="426" from-port="2" to-layer="434" to-port="0" />
		<edge from-layer="427" from-port="0" to-layer="429" to-port="1" />
		<edge from-layer="428" from-port="0" to-layer="429" to-port="2" />
		<edge from-layer="429" from-port="3" to-layer="433" to-port="0" />
		<edge from-layer="430" from-port="0" to-layer="432" to-port="1" />
		<edge from-layer="431" from-port="0" to-layer="432" to-port="2" />
		<edge from-layer="432" from-port="3" to-layer="433" to-port="2" />
		<edge from-layer="433" from-port="3" to-layer="434" to-port="1" />
		<edge from-layer="434" from-port="2" to-layer="455" to-port="0" />
		<edge from-layer="434" from-port="2" to-layer="446" to-port="0" />
		<edge from-layer="434" from-port="2" to-layer="438" to-port="0" />
		<edge from-layer="435" from-port="0" to-layer="446" to-port="1" />
		<edge from-layer="436" from-port="0" to-layer="444" to-port="0" />
		<edge from-layer="437" from-port="0" to-layer="444" to-port="1" />
		<edge from-layer="438" from-port="1" to-layer="440" to-port="0" />
		<edge from-layer="439" from-port="0" to-layer="440" to-port="2" />
		<edge from-layer="440" from-port="3" to-layer="441" to-port="0" />
		<edge from-layer="441" from-port="2" to-layer="442" to-port="0" />
		<edge from-layer="442" from-port="2" to-layer="444" to-port="2" />
		<edge from-layer="442" from-port="2" to-layer="452" to-port="0" />
		<edge from-layer="442" from-port="2" to-layer="450" to-port="2" />
		<edge from-layer="443" from-port="0" to-layer="444" to-port="3" />
		<edge from-layer="444" from-port="4" to-layer="446" to-port="2" />
		<edge from-layer="445" from-port="0" to-layer="446" to-port="3" />
		<edge from-layer="446" from-port="4" to-layer="470" to-port="0" />
		<edge from-layer="447" from-port="0" to-layer="450" to-port="0" />
		<edge from-layer="448" from-port="0" to-layer="453" to-port="1" />
		<edge from-layer="448" from-port="0" to-layer="450" to-port="1" />
		<edge from-layer="449" from-port="0" to-layer="450" to-port="3" />
		<edge from-layer="449" from-port="0" to-layer="453" to-port="3" />
		<edge from-layer="450" from-port="4" to-layer="455" to-port="1" />
		<edge from-layer="451" from-port="0" to-layer="453" to-port="0" />
		<edge from-layer="452" from-port="2" to-layer="453" to-port="2" />
		<edge from-layer="453" from-port="4" to-layer="455" to-port="2" />
		<edge from-layer="454" from-port="0" to-layer="455" to-port="3" />
		<edge from-layer="455" from-port="4" to-layer="457" to-port="0" />
		<edge from-layer="456" from-port="0" to-layer="457" to-port="1" />
		<edge from-layer="457" from-port="2" to-layer="459" to-port="0" />
		<edge from-layer="458" from-port="0" to-layer="459" to-port="1" />
		<edge from-layer="459" from-port="2" to-layer="460" to-port="0" />
		<edge from-layer="460" from-port="1" to-layer="462" to-port="0" />
		<edge from-layer="461" from-port="0" to-layer="462" to-port="1" />
		<edge from-layer="462" from-port="2" to-layer="464" to-port="0" />
		<edge from-layer="463" from-port="0" to-layer="464" to-port="1" />
		<edge from-layer="464" from-port="2" to-layer="466" to-port="0" />
		<edge from-layer="465" from-port="0" to-layer="466" to-port="1" />
		<edge from-layer="466" from-port="2" to-layer="468" to-port="0" />
		<edge from-layer="467" from-port="0" to-layer="468" to-port="1" />
		<edge from-layer="468" from-port="2" to-layer="469" to-port="0" />
		<edge from-layer="469" from-port="1" to-layer="470" to-port="1" />
		<edge from-layer="470" from-port="2" to-layer="481" to-port="0" />
		<edge from-layer="470" from-port="2" to-layer="472" to-port="0" />
		<edge from-layer="471" from-port="0" to-layer="480" to-port="0" />
		<edge from-layer="472" from-port="1" to-layer="486" to-port="0" />
		<edge from-layer="472" from-port="1" to-layer="479" to-port="0" />
		<edge from-layer="472" from-port="1" to-layer="474" to-port="0" />
		<edge from-layer="472" from-port="1" to-layer="489" to-port="0" />
		<edge from-layer="473" from-port="0" to-layer="474" to-port="2" />
		<edge from-layer="474" from-port="3" to-layer="475" to-port="0" />
		<edge from-layer="475" from-port="2" to-layer="476" to-port="0" />
		<edge from-layer="476" from-port="2" to-layer="480" to-port="2" />
		<edge from-layer="477" from-port="0" to-layer="479" to-port="1" />
		<edge from-layer="478" from-port="0" to-layer="479" to-port="2" />
		<edge from-layer="479" from-port="3" to-layer="480" to-port="3" />
		<edge from-layer="480" from-port="4" to-layer="481" to-port="1" />
		<edge from-layer="481" from-port="2" to-layer="483" to-port="0" />
		<edge from-layer="482" from-port="0" to-layer="483" to-port="1" />
		<edge from-layer="483" from-port="2" to-layer="491" to-port="0" />
		<edge from-layer="484" from-port="0" to-layer="486" to-port="1" />
		<edge from-layer="485" from-port="0" to-layer="486" to-port="2" />
		<edge from-layer="486" from-port="3" to-layer="490" to-port="0" />
		<edge from-layer="487" from-port="0" to-layer="489" to-port="1" />
		<edge from-layer="488" from-port="0" to-layer="489" to-port="2" />
		<edge from-layer="489" from-port="3" to-layer="490" to-port="2" />
		<edge from-layer="490" from-port="3" to-layer="491" to-port="1" />
		<edge from-layer="491" from-port="2" to-layer="503" to-port="0" />
		<edge from-layer="491" from-port="2" to-layer="495" to-port="0" />
		<edge from-layer="491" from-port="2" to-layer="512" to-port="0" />
		<edge from-layer="492" from-port="0" to-layer="503" to-port="1" />
		<edge from-layer="493" from-port="0" to-layer="501" to-port="0" />
		<edge from-layer="494" from-port="0" to-layer="501" to-port="1" />
		<edge from-layer="495" from-port="1" to-layer="497" to-port="0" />
		<edge from-layer="496" from-port="0" to-layer="497" to-port="2" />
		<edge from-layer="497" from-port="3" to-layer="498" to-port="0" />
		<edge from-layer="498" from-port="2" to-layer="499" to-port="0" />
		<edge from-layer="499" from-port="2" to-layer="509" to-port="0" />
		<edge from-layer="499" from-port="2" to-layer="501" to-port="2" />
		<edge from-layer="499" from-port="2" to-layer="507" to-port="2" />
		<edge from-layer="500" from-port="0" to-layer="501" to-port="3" />
		<edge from-layer="501" from-port="4" to-layer="503" to-port="2" />
		<edge from-layer="502" from-port="0" to-layer="503" to-port="3" />
		<edge from-layer="503" from-port="4" to-layer="527" to-port="0" />
		<edge from-layer="504" from-port="0" to-layer="507" to-port="0" />
		<edge from-layer="505" from-port="0" to-layer="510" to-port="1" />
		<edge from-layer="505" from-port="0" to-layer="507" to-port="1" />
		<edge from-layer="506" from-port="0" to-layer="510" to-port="3" />
		<edge from-layer="506" from-port="0" to-layer="507" to-port="3" />
		<edge from-layer="507" from-port="4" to-layer="512" to-port="1" />
		<edge from-layer="508" from-port="0" to-layer="510" to-port="0" />
		<edge from-layer="509" from-port="2" to-layer="510" to-port="2" />
		<edge from-layer="510" from-port="4" to-layer="512" to-port="2" />
		<edge from-layer="511" from-port="0" to-layer="512" to-port="3" />
		<edge from-layer="512" from-port="4" to-layer="514" to-port="0" />
		<edge from-layer="513" from-port="0" to-layer="514" to-port="1" />
		<edge from-layer="514" from-port="2" to-layer="516" to-port="0" />
		<edge from-layer="515" from-port="0" to-layer="516" to-port="1" />
		<edge from-layer="516" from-port="2" to-layer="517" to-port="0" />
		<edge from-layer="517" from-port="1" to-layer="519" to-port="0" />
		<edge from-layer="518" from-port="0" to-layer="519" to-port="1" />
		<edge from-layer="519" from-port="2" to-layer="521" to-port="0" />
		<edge from-layer="520" from-port="0" to-layer="521" to-port="1" />
		<edge from-layer="521" from-port="2" to-layer="523" to-port="0" />
		<edge from-layer="522" from-port="0" to-layer="523" to-port="1" />
		<edge from-layer="523" from-port="2" to-layer="525" to-port="0" />
		<edge from-layer="524" from-port="0" to-layer="525" to-port="1" />
		<edge from-layer="525" from-port="2" to-layer="526" to-port="0" />
		<edge from-layer="526" from-port="1" to-layer="527" to-port="1" />
		<edge from-layer="527" from-port="2" to-layer="538" to-port="0" />
		<edge from-layer="527" from-port="2" to-layer="529" to-port="0" />
		<edge from-layer="528" from-port="0" to-layer="537" to-port="0" />
		<edge from-layer="529" from-port="1" to-layer="531" to-port="0" />
		<edge from-layer="529" from-port="1" to-layer="536" to-port="0" />
		<edge from-layer="529" from-port="1" to-layer="543" to-port="0" />
		<edge from-layer="529" from-port="1" to-layer="546" to-port="0" />
		<edge from-layer="530" from-port="0" to-layer="531" to-port="2" />
		<edge from-layer="531" from-port="3" to-layer="532" to-port="0" />
		<edge from-layer="532" from-port="2" to-layer="533" to-port="0" />
		<edge from-layer="533" from-port="2" to-layer="537" to-port="2" />
		<edge from-layer="534" from-port="0" to-layer="536" to-port="1" />
		<edge from-layer="535" from-port="0" to-layer="536" to-port="2" />
		<edge from-layer="536" from-port="3" to-layer="537" to-port="3" />
		<edge from-layer="537" from-port="4" to-layer="538" to-port="1" />
		<edge from-layer="538" from-port="2" to-layer="540" to-port="0" />
		<edge from-layer="539" from-port="0" to-layer="540" to-port="1" />
		<edge from-layer="540" from-port="2" to-layer="548" to-port="0" />
		<edge from-layer="541" from-port="0" to-layer="543" to-port="1" />
		<edge from-layer="542" from-port="0" to-layer="543" to-port="2" />
		<edge from-layer="543" from-port="3" to-layer="547" to-port="0" />
		<edge from-layer="544" from-port="0" to-layer="546" to-port="1" />
		<edge from-layer="545" from-port="0" to-layer="546" to-port="2" />
		<edge from-layer="546" from-port="3" to-layer="547" to-port="2" />
		<edge from-layer="547" from-port="3" to-layer="548" to-port="1" />
		<edge from-layer="548" from-port="2" to-layer="552" to-port="0" />
		<edge from-layer="548" from-port="2" to-layer="569" to-port="0" />
		<edge from-layer="548" from-port="2" to-layer="560" to-port="0" />
		<edge from-layer="549" from-port="0" to-layer="560" to-port="1" />
		<edge from-layer="550" from-port="0" to-layer="558" to-port="0" />
		<edge from-layer="551" from-port="0" to-layer="558" to-port="1" />
		<edge from-layer="552" from-port="1" to-layer="554" to-port="0" />
		<edge from-layer="553" from-port="0" to-layer="554" to-port="2" />
		<edge from-layer="554" from-port="3" to-layer="555" to-port="0" />
		<edge from-layer="555" from-port="2" to-layer="556" to-port="0" />
		<edge from-layer="556" from-port="2" to-layer="566" to-port="0" />
		<edge from-layer="556" from-port="2" to-layer="564" to-port="2" />
		<edge from-layer="556" from-port="2" to-layer="558" to-port="2" />
		<edge from-layer="557" from-port="0" to-layer="558" to-port="3" />
		<edge from-layer="558" from-port="4" to-layer="560" to-port="2" />
		<edge from-layer="559" from-port="0" to-layer="560" to-port="3" />
		<edge from-layer="560" from-port="4" to-layer="584" to-port="0" />
		<edge from-layer="561" from-port="0" to-layer="564" to-port="0" />
		<edge from-layer="562" from-port="0" to-layer="564" to-port="1" />
		<edge from-layer="562" from-port="0" to-layer="567" to-port="1" />
		<edge from-layer="563" from-port="0" to-layer="567" to-port="3" />
		<edge from-layer="563" from-port="0" to-layer="564" to-port="3" />
		<edge from-layer="564" from-port="4" to-layer="569" to-port="1" />
		<edge from-layer="565" from-port="0" to-layer="567" to-port="0" />
		<edge from-layer="566" from-port="2" to-layer="567" to-port="2" />
		<edge from-layer="567" from-port="4" to-layer="569" to-port="2" />
		<edge from-layer="568" from-port="0" to-layer="569" to-port="3" />
		<edge from-layer="569" from-port="4" to-layer="571" to-port="0" />
		<edge from-layer="570" from-port="0" to-layer="571" to-port="1" />
		<edge from-layer="571" from-port="2" to-layer="573" to-port="0" />
		<edge from-layer="572" from-port="0" to-layer="573" to-port="1" />
		<edge from-layer="573" from-port="2" to-layer="574" to-port="0" />
		<edge from-layer="574" from-port="1" to-layer="576" to-port="0" />
		<edge from-layer="575" from-port="0" to-layer="576" to-port="1" />
		<edge from-layer="576" from-port="2" to-layer="578" to-port="0" />
		<edge from-layer="577" from-port="0" to-layer="578" to-port="1" />
		<edge from-layer="578" from-port="2" to-layer="580" to-port="0" />
		<edge from-layer="579" from-port="0" to-layer="580" to-port="1" />
		<edge from-layer="580" from-port="2" to-layer="582" to-port="0" />
		<edge from-layer="581" from-port="0" to-layer="582" to-port="1" />
		<edge from-layer="582" from-port="2" to-layer="583" to-port="0" />
		<edge from-layer="583" from-port="1" to-layer="584" to-port="1" />
		<edge from-layer="584" from-port="2" to-layer="586" to-port="0" />
		<edge from-layer="584" from-port="2" to-layer="595" to-port="0" />
		<edge from-layer="585" from-port="0" to-layer="594" to-port="0" />
		<edge from-layer="586" from-port="1" to-layer="588" to-port="0" />
		<edge from-layer="586" from-port="1" to-layer="593" to-port="0" />
		<edge from-layer="586" from-port="1" to-layer="600" to-port="0" />
		<edge from-layer="586" from-port="1" to-layer="603" to-port="0" />
		<edge from-layer="587" from-port="0" to-layer="588" to-port="2" />
		<edge from-layer="588" from-port="3" to-layer="589" to-port="0" />
		<edge from-layer="589" from-port="2" to-layer="590" to-port="0" />
		<edge from-layer="590" from-port="2" to-layer="594" to-port="2" />
		<edge from-layer="591" from-port="0" to-layer="593" to-port="1" />
		<edge from-layer="592" from-port="0" to-layer="593" to-port="2" />
		<edge from-layer="593" from-port="3" to-layer="594" to-port="3" />
		<edge from-layer="594" from-port="4" to-layer="595" to-port="1" />
		<edge from-layer="595" from-port="2" to-layer="597" to-port="0" />
		<edge from-layer="596" from-port="0" to-layer="597" to-port="1" />
		<edge from-layer="597" from-port="2" to-layer="605" to-port="0" />
		<edge from-layer="598" from-port="0" to-layer="600" to-port="1" />
		<edge from-layer="599" from-port="0" to-layer="600" to-port="2" />
		<edge from-layer="600" from-port="3" to-layer="604" to-port="0" />
		<edge from-layer="601" from-port="0" to-layer="603" to-port="1" />
		<edge from-layer="602" from-port="0" to-layer="603" to-port="2" />
		<edge from-layer="603" from-port="3" to-layer="604" to-port="2" />
		<edge from-layer="604" from-port="3" to-layer="605" to-port="1" />
		<edge from-layer="605" from-port="2" to-layer="609" to-port="0" />
		<edge from-layer="605" from-port="2" to-layer="617" to-port="0" />
		<edge from-layer="605" from-port="2" to-layer="626" to-port="0" />
		<edge from-layer="606" from-port="0" to-layer="617" to-port="1" />
		<edge from-layer="607" from-port="0" to-layer="615" to-port="0" />
		<edge from-layer="608" from-port="0" to-layer="615" to-port="1" />
		<edge from-layer="609" from-port="1" to-layer="611" to-port="0" />
		<edge from-layer="610" from-port="0" to-layer="611" to-port="2" />
		<edge from-layer="611" from-port="3" to-layer="612" to-port="0" />
		<edge from-layer="612" from-port="2" to-layer="613" to-port="0" />
		<edge from-layer="613" from-port="2" to-layer="615" to-port="2" />
		<edge from-layer="613" from-port="2" to-layer="621" to-port="2" />
		<edge from-layer="613" from-port="2" to-layer="623" to-port="0" />
		<edge from-layer="614" from-port="0" to-layer="615" to-port="3" />
		<edge from-layer="615" from-port="4" to-layer="617" to-port="2" />
		<edge from-layer="616" from-port="0" to-layer="617" to-port="3" />
		<edge from-layer="617" from-port="4" to-layer="641" to-port="0" />
		<edge from-layer="618" from-port="0" to-layer="621" to-port="0" />
		<edge from-layer="619" from-port="0" to-layer="624" to-port="1" />
		<edge from-layer="619" from-port="0" to-layer="621" to-port="1" />
		<edge from-layer="620" from-port="0" to-layer="624" to-port="3" />
		<edge from-layer="620" from-port="0" to-layer="621" to-port="3" />
		<edge from-layer="621" from-port="4" to-layer="626" to-port="1" />
		<edge from-layer="622" from-port="0" to-layer="624" to-port="0" />
		<edge from-layer="623" from-port="2" to-layer="624" to-port="2" />
		<edge from-layer="624" from-port="4" to-layer="626" to-port="2" />
		<edge from-layer="625" from-port="0" to-layer="626" to-port="3" />
		<edge from-layer="626" from-port="4" to-layer="628" to-port="0" />
		<edge from-layer="627" from-port="0" to-layer="628" to-port="1" />
		<edge from-layer="628" from-port="2" to-layer="630" to-port="0" />
		<edge from-layer="629" from-port="0" to-layer="630" to-port="1" />
		<edge from-layer="630" from-port="2" to-layer="631" to-port="0" />
		<edge from-layer="631" from-port="1" to-layer="633" to-port="0" />
		<edge from-layer="632" from-port="0" to-layer="633" to-port="1" />
		<edge from-layer="633" from-port="2" to-layer="635" to-port="0" />
		<edge from-layer="634" from-port="0" to-layer="635" to-port="1" />
		<edge from-layer="635" from-port="2" to-layer="637" to-port="0" />
		<edge from-layer="636" from-port="0" to-layer="637" to-port="1" />
		<edge from-layer="637" from-port="2" to-layer="639" to-port="0" />
		<edge from-layer="638" from-port="0" to-layer="639" to-port="1" />
		<edge from-layer="639" from-port="2" to-layer="640" to-port="0" />
		<edge from-layer="640" from-port="1" to-layer="641" to-port="1" />
		<edge from-layer="641" from-port="2" to-layer="652" to-port="0" />
		<edge from-layer="641" from-port="2" to-layer="643" to-port="0" />
		<edge from-layer="642" from-port="0" to-layer="651" to-port="0" />
		<edge from-layer="643" from-port="1" to-layer="657" to-port="0" />
		<edge from-layer="643" from-port="1" to-layer="650" to-port="0" />
		<edge from-layer="643" from-port="1" to-layer="660" to-port="0" />
		<edge from-layer="643" from-port="1" to-layer="645" to-port="0" />
		<edge from-layer="644" from-port="0" to-layer="645" to-port="2" />
		<edge from-layer="645" from-port="3" to-layer="646" to-port="0" />
		<edge from-layer="646" from-port="2" to-layer="647" to-port="0" />
		<edge from-layer="647" from-port="2" to-layer="651" to-port="2" />
		<edge from-layer="648" from-port="0" to-layer="650" to-port="1" />
		<edge from-layer="649" from-port="0" to-layer="650" to-port="2" />
		<edge from-layer="650" from-port="3" to-layer="651" to-port="3" />
		<edge from-layer="651" from-port="4" to-layer="652" to-port="1" />
		<edge from-layer="652" from-port="2" to-layer="654" to-port="0" />
		<edge from-layer="653" from-port="0" to-layer="654" to-port="1" />
		<edge from-layer="654" from-port="2" to-layer="662" to-port="0" />
		<edge from-layer="655" from-port="0" to-layer="657" to-port="1" />
		<edge from-layer="656" from-port="0" to-layer="657" to-port="2" />
		<edge from-layer="657" from-port="3" to-layer="661" to-port="0" />
		<edge from-layer="658" from-port="0" to-layer="660" to-port="1" />
		<edge from-layer="659" from-port="0" to-layer="660" to-port="2" />
		<edge from-layer="660" from-port="3" to-layer="661" to-port="2" />
		<edge from-layer="661" from-port="3" to-layer="662" to-port="1" />
		<edge from-layer="662" from-port="2" to-layer="664" to-port="0" />
		<edge from-layer="662" from-port="2" to-layer="673" to-port="0" />
		<edge from-layer="663" from-port="0" to-layer="664" to-port="1" />
		<edge from-layer="664" from-port="2" to-layer="666" to-port="0" />
		<edge from-layer="665" from-port="0" to-layer="666" to-port="1" />
		<edge from-layer="666" from-port="2" to-layer="668" to-port="0" />
		<edge from-layer="667" from-port="0" to-layer="668" to-port="1" />
		<edge from-layer="668" from-port="2" to-layer="670" to-port="0" />
		<edge from-layer="669" from-port="0" to-layer="670" to-port="1" />
		<edge from-layer="670" from-port="2" to-layer="671" to-port="0" />
		<edge from-layer="671" from-port="1" to-layer="686" to-port="0" />
		<edge from-layer="672" from-port="0" to-layer="673" to-port="1" />
		<edge from-layer="673" from-port="2" to-layer="675" to-port="0" />
		<edge from-layer="674" from-port="0" to-layer="675" to-port="1" />
		<edge from-layer="675" from-port="2" to-layer="676" to-port="0" />
		<edge from-layer="676" from-port="1" to-layer="678" to-port="0" />
		<edge from-layer="677" from-port="0" to-layer="678" to-port="1" />
		<edge from-layer="678" from-port="2" to-layer="680" to-port="0" />
		<edge from-layer="679" from-port="0" to-layer="680" to-port="1" />
		<edge from-layer="680" from-port="2" to-layer="682" to-port="0" />
		<edge from-layer="681" from-port="0" to-layer="682" to-port="1" />
		<edge from-layer="682" from-port="2" to-layer="684" to-port="0" />
		<edge from-layer="683" from-port="0" to-layer="684" to-port="1" />
		<edge from-layer="684" from-port="2" to-layer="685" to-port="0" />
		<edge from-layer="685" from-port="1" to-layer="686" to-port="1" />
		<edge from-layer="686" from-port="2" to-layer="697" to-port="0" />
		<edge from-layer="686" from-port="2" to-layer="688" to-port="0" />
		<edge from-layer="687" from-port="0" to-layer="696" to-port="0" />
		<edge from-layer="688" from-port="1" to-layer="702" to-port="0" />
		<edge from-layer="688" from-port="1" to-layer="705" to-port="0" />
		<edge from-layer="688" from-port="1" to-layer="695" to-port="0" />
		<edge from-layer="688" from-port="1" to-layer="690" to-port="0" />
		<edge from-layer="689" from-port="0" to-layer="690" to-port="2" />
		<edge from-layer="690" from-port="3" to-layer="691" to-port="0" />
		<edge from-layer="691" from-port="2" to-layer="692" to-port="0" />
		<edge from-layer="692" from-port="2" to-layer="696" to-port="2" />
		<edge from-layer="693" from-port="0" to-layer="695" to-port="1" />
		<edge from-layer="694" from-port="0" to-layer="695" to-port="2" />
		<edge from-layer="695" from-port="3" to-layer="696" to-port="3" />
		<edge from-layer="696" from-port="4" to-layer="697" to-port="1" />
		<edge from-layer="697" from-port="2" to-layer="699" to-port="0" />
		<edge from-layer="698" from-port="0" to-layer="699" to-port="1" />
		<edge from-layer="699" from-port="2" to-layer="707" to-port="0" />
		<edge from-layer="700" from-port="0" to-layer="702" to-port="1" />
		<edge from-layer="701" from-port="0" to-layer="702" to-port="2" />
		<edge from-layer="702" from-port="3" to-layer="706" to-port="0" />
		<edge from-layer="703" from-port="0" to-layer="705" to-port="1" />
		<edge from-layer="704" from-port="0" to-layer="705" to-port="2" />
		<edge from-layer="705" from-port="3" to-layer="706" to-port="2" />
		<edge from-layer="706" from-port="3" to-layer="707" to-port="1" />
		<edge from-layer="707" from-port="2" to-layer="719" to-port="0" />
		<edge from-layer="707" from-port="2" to-layer="728" to-port="0" />
		<edge from-layer="707" from-port="2" to-layer="711" to-port="0" />
		<edge from-layer="708" from-port="0" to-layer="719" to-port="1" />
		<edge from-layer="709" from-port="0" to-layer="717" to-port="0" />
		<edge from-layer="710" from-port="0" to-layer="717" to-port="1" />
		<edge from-layer="711" from-port="1" to-layer="713" to-port="0" />
		<edge from-layer="712" from-port="0" to-layer="713" to-port="2" />
		<edge from-layer="713" from-port="3" to-layer="714" to-port="0" />
		<edge from-layer="714" from-port="2" to-layer="715" to-port="0" />
		<edge from-layer="715" from-port="2" to-layer="723" to-port="2" />
		<edge from-layer="715" from-port="2" to-layer="725" to-port="0" />
		<edge from-layer="715" from-port="2" to-layer="717" to-port="2" />
		<edge from-layer="716" from-port="0" to-layer="717" to-port="3" />
		<edge from-layer="717" from-port="4" to-layer="719" to-port="2" />
		<edge from-layer="718" from-port="0" to-layer="719" to-port="3" />
		<edge from-layer="719" from-port="4" to-layer="743" to-port="0" />
		<edge from-layer="720" from-port="0" to-layer="723" to-port="0" />
		<edge from-layer="721" from-port="0" to-layer="726" to-port="1" />
		<edge from-layer="721" from-port="0" to-layer="723" to-port="1" />
		<edge from-layer="722" from-port="0" to-layer="723" to-port="3" />
		<edge from-layer="722" from-port="0" to-layer="726" to-port="3" />
		<edge from-layer="723" from-port="4" to-layer="728" to-port="1" />
		<edge from-layer="724" from-port="0" to-layer="726" to-port="0" />
		<edge from-layer="725" from-port="2" to-layer="726" to-port="2" />
		<edge from-layer="726" from-port="4" to-layer="728" to-port="2" />
		<edge from-layer="727" from-port="0" to-layer="728" to-port="3" />
		<edge from-layer="728" from-port="4" to-layer="730" to-port="0" />
		<edge from-layer="729" from-port="0" to-layer="730" to-port="1" />
		<edge from-layer="730" from-port="2" to-layer="732" to-port="0" />
		<edge from-layer="731" from-port="0" to-layer="732" to-port="1" />
		<edge from-layer="732" from-port="2" to-layer="733" to-port="0" />
		<edge from-layer="733" from-port="1" to-layer="735" to-port="0" />
		<edge from-layer="734" from-port="0" to-layer="735" to-port="1" />
		<edge from-layer="735" from-port="2" to-layer="737" to-port="0" />
		<edge from-layer="736" from-port="0" to-layer="737" to-port="1" />
		<edge from-layer="737" from-port="2" to-layer="739" to-port="0" />
		<edge from-layer="738" from-port="0" to-layer="739" to-port="1" />
		<edge from-layer="739" from-port="2" to-layer="741" to-port="0" />
		<edge from-layer="740" from-port="0" to-layer="741" to-port="1" />
		<edge from-layer="741" from-port="2" to-layer="742" to-port="0" />
		<edge from-layer="742" from-port="1" to-layer="743" to-port="1" />
		<edge from-layer="743" from-port="2" to-layer="754" to-port="0" />
		<edge from-layer="743" from-port="2" to-layer="745" to-port="0" />
		<edge from-layer="744" from-port="0" to-layer="753" to-port="0" />
		<edge from-layer="745" from-port="1" to-layer="759" to-port="0" />
		<edge from-layer="745" from-port="1" to-layer="762" to-port="0" />
		<edge from-layer="745" from-port="1" to-layer="752" to-port="0" />
		<edge from-layer="745" from-port="1" to-layer="747" to-port="0" />
		<edge from-layer="746" from-port="0" to-layer="747" to-port="2" />
		<edge from-layer="747" from-port="3" to-layer="748" to-port="0" />
		<edge from-layer="748" from-port="2" to-layer="749" to-port="0" />
		<edge from-layer="749" from-port="2" to-layer="753" to-port="2" />
		<edge from-layer="750" from-port="0" to-layer="752" to-port="1" />
		<edge from-layer="751" from-port="0" to-layer="752" to-port="2" />
		<edge from-layer="752" from-port="3" to-layer="753" to-port="3" />
		<edge from-layer="753" from-port="4" to-layer="754" to-port="1" />
		<edge from-layer="754" from-port="2" to-layer="756" to-port="0" />
		<edge from-layer="755" from-port="0" to-layer="756" to-port="1" />
		<edge from-layer="756" from-port="2" to-layer="764" to-port="0" />
		<edge from-layer="757" from-port="0" to-layer="759" to-port="1" />
		<edge from-layer="758" from-port="0" to-layer="759" to-port="2" />
		<edge from-layer="759" from-port="3" to-layer="763" to-port="0" />
		<edge from-layer="760" from-port="0" to-layer="762" to-port="1" />
		<edge from-layer="761" from-port="0" to-layer="762" to-port="2" />
		<edge from-layer="762" from-port="3" to-layer="763" to-port="2" />
		<edge from-layer="763" from-port="3" to-layer="764" to-port="1" />
		<edge from-layer="764" from-port="2" to-layer="785" to-port="0" />
		<edge from-layer="764" from-port="2" to-layer="776" to-port="0" />
		<edge from-layer="764" from-port="2" to-layer="768" to-port="0" />
		<edge from-layer="765" from-port="0" to-layer="776" to-port="1" />
		<edge from-layer="766" from-port="0" to-layer="774" to-port="0" />
		<edge from-layer="767" from-port="0" to-layer="774" to-port="1" />
		<edge from-layer="768" from-port="1" to-layer="770" to-port="0" />
		<edge from-layer="769" from-port="0" to-layer="770" to-port="2" />
		<edge from-layer="770" from-port="3" to-layer="771" to-port="0" />
		<edge from-layer="771" from-port="2" to-layer="772" to-port="0" />
		<edge from-layer="772" from-port="2" to-layer="782" to-port="0" />
		<edge from-layer="772" from-port="2" to-layer="774" to-port="2" />
		<edge from-layer="772" from-port="2" to-layer="780" to-port="2" />
		<edge from-layer="773" from-port="0" to-layer="774" to-port="3" />
		<edge from-layer="774" from-port="4" to-layer="776" to-port="2" />
		<edge from-layer="775" from-port="0" to-layer="776" to-port="3" />
		<edge from-layer="776" from-port="4" to-layer="800" to-port="0" />
		<edge from-layer="777" from-port="0" to-layer="780" to-port="0" />
		<edge from-layer="778" from-port="0" to-layer="780" to-port="1" />
		<edge from-layer="778" from-port="0" to-layer="783" to-port="1" />
		<edge from-layer="779" from-port="0" to-layer="780" to-port="3" />
		<edge from-layer="779" from-port="0" to-layer="783" to-port="3" />
		<edge from-layer="780" from-port="4" to-layer="785" to-port="1" />
		<edge from-layer="781" from-port="0" to-layer="783" to-port="0" />
		<edge from-layer="782" from-port="2" to-layer="783" to-port="2" />
		<edge from-layer="783" from-port="4" to-layer="785" to-port="2" />
		<edge from-layer="784" from-port="0" to-layer="785" to-port="3" />
		<edge from-layer="785" from-port="4" to-layer="787" to-port="0" />
		<edge from-layer="786" from-port="0" to-layer="787" to-port="1" />
		<edge from-layer="787" from-port="2" to-layer="789" to-port="0" />
		<edge from-layer="788" from-port="0" to-layer="789" to-port="1" />
		<edge from-layer="789" from-port="2" to-layer="790" to-port="0" />
		<edge from-layer="790" from-port="1" to-layer="792" to-port="0" />
		<edge from-layer="791" from-port="0" to-layer="792" to-port="1" />
		<edge from-layer="792" from-port="2" to-layer="794" to-port="0" />
		<edge from-layer="793" from-port="0" to-layer="794" to-port="1" />
		<edge from-layer="794" from-port="2" to-layer="796" to-port="0" />
		<edge from-layer="795" from-port="0" to-layer="796" to-port="1" />
		<edge from-layer="796" from-port="2" to-layer="798" to-port="0" />
		<edge from-layer="797" from-port="0" to-layer="798" to-port="1" />
		<edge from-layer="798" from-port="2" to-layer="799" to-port="0" />
		<edge from-layer="799" from-port="1" to-layer="800" to-port="1" />
		<edge from-layer="800" from-port="2" to-layer="802" to-port="0" />
		<edge from-layer="800" from-port="2" to-layer="811" to-port="0" />
		<edge from-layer="801" from-port="0" to-layer="810" to-port="0" />
		<edge from-layer="802" from-port="1" to-layer="816" to-port="0" />
		<edge from-layer="802" from-port="1" to-layer="819" to-port="0" />
		<edge from-layer="802" from-port="1" to-layer="804" to-port="0" />
		<edge from-layer="802" from-port="1" to-layer="809" to-port="0" />
		<edge from-layer="803" from-port="0" to-layer="804" to-port="2" />
		<edge from-layer="804" from-port="3" to-layer="805" to-port="0" />
		<edge from-layer="805" from-port="2" to-layer="806" to-port="0" />
		<edge from-layer="806" from-port="2" to-layer="810" to-port="2" />
		<edge from-layer="807" from-port="0" to-layer="809" to-port="1" />
		<edge from-layer="808" from-port="0" to-layer="809" to-port="2" />
		<edge from-layer="809" from-port="3" to-layer="810" to-port="3" />
		<edge from-layer="810" from-port="4" to-layer="811" to-port="1" />
		<edge from-layer="811" from-port="2" to-layer="813" to-port="0" />
		<edge from-layer="812" from-port="0" to-layer="813" to-port="1" />
		<edge from-layer="813" from-port="2" to-layer="821" to-port="0" />
		<edge from-layer="814" from-port="0" to-layer="816" to-port="1" />
		<edge from-layer="815" from-port="0" to-layer="816" to-port="2" />
		<edge from-layer="816" from-port="3" to-layer="820" to-port="0" />
		<edge from-layer="817" from-port="0" to-layer="819" to-port="1" />
		<edge from-layer="818" from-port="0" to-layer="819" to-port="2" />
		<edge from-layer="819" from-port="3" to-layer="820" to-port="2" />
		<edge from-layer="820" from-port="3" to-layer="821" to-port="1" />
		<edge from-layer="821" from-port="2" to-layer="825" to-port="0" />
		<edge from-layer="821" from-port="2" to-layer="842" to-port="0" />
		<edge from-layer="821" from-port="2" to-layer="833" to-port="0" />
		<edge from-layer="822" from-port="0" to-layer="833" to-port="1" />
		<edge from-layer="823" from-port="0" to-layer="831" to-port="0" />
		<edge from-layer="824" from-port="0" to-layer="831" to-port="1" />
		<edge from-layer="825" from-port="1" to-layer="827" to-port="0" />
		<edge from-layer="826" from-port="0" to-layer="827" to-port="2" />
		<edge from-layer="827" from-port="3" to-layer="828" to-port="0" />
		<edge from-layer="828" from-port="2" to-layer="829" to-port="0" />
		<edge from-layer="829" from-port="2" to-layer="831" to-port="2" />
		<edge from-layer="829" from-port="2" to-layer="837" to-port="2" />
		<edge from-layer="829" from-port="2" to-layer="839" to-port="0" />
		<edge from-layer="830" from-port="0" to-layer="831" to-port="3" />
		<edge from-layer="831" from-port="4" to-layer="833" to-port="2" />
		<edge from-layer="832" from-port="0" to-layer="833" to-port="3" />
		<edge from-layer="833" from-port="4" to-layer="857" to-port="0" />
		<edge from-layer="834" from-port="0" to-layer="837" to-port="0" />
		<edge from-layer="835" from-port="0" to-layer="837" to-port="1" />
		<edge from-layer="835" from-port="0" to-layer="840" to-port="1" />
		<edge from-layer="836" from-port="0" to-layer="840" to-port="3" />
		<edge from-layer="836" from-port="0" to-layer="837" to-port="3" />
		<edge from-layer="837" from-port="4" to-layer="842" to-port="1" />
		<edge from-layer="838" from-port="0" to-layer="840" to-port="0" />
		<edge from-layer="839" from-port="2" to-layer="840" to-port="2" />
		<edge from-layer="840" from-port="4" to-layer="842" to-port="2" />
		<edge from-layer="841" from-port="0" to-layer="842" to-port="3" />
		<edge from-layer="842" from-port="4" to-layer="844" to-port="0" />
		<edge from-layer="843" from-port="0" to-layer="844" to-port="1" />
		<edge from-layer="844" from-port="2" to-layer="846" to-port="0" />
		<edge from-layer="845" from-port="0" to-layer="846" to-port="1" />
		<edge from-layer="846" from-port="2" to-layer="847" to-port="0" />
		<edge from-layer="847" from-port="1" to-layer="849" to-port="0" />
		<edge from-layer="848" from-port="0" to-layer="849" to-port="1" />
		<edge from-layer="849" from-port="2" to-layer="851" to-port="0" />
		<edge from-layer="850" from-port="0" to-layer="851" to-port="1" />
		<edge from-layer="851" from-port="2" to-layer="853" to-port="0" />
		<edge from-layer="852" from-port="0" to-layer="853" to-port="1" />
		<edge from-layer="853" from-port="2" to-layer="855" to-port="0" />
		<edge from-layer="854" from-port="0" to-layer="855" to-port="1" />
		<edge from-layer="855" from-port="2" to-layer="856" to-port="0" />
		<edge from-layer="856" from-port="1" to-layer="857" to-port="1" />
		<edge from-layer="857" from-port="2" to-layer="859" to-port="0" />
		<edge from-layer="857" from-port="2" to-layer="868" to-port="0" />
		<edge from-layer="858" from-port="0" to-layer="867" to-port="0" />
		<edge from-layer="859" from-port="1" to-layer="866" to-port="0" />
		<edge from-layer="859" from-port="1" to-layer="861" to-port="0" />
		<edge from-layer="859" from-port="1" to-layer="873" to-port="0" />
		<edge from-layer="859" from-port="1" to-layer="876" to-port="0" />
		<edge from-layer="860" from-port="0" to-layer="861" to-port="2" />
		<edge from-layer="861" from-port="3" to-layer="862" to-port="0" />
		<edge from-layer="862" from-port="2" to-layer="863" to-port="0" />
		<edge from-layer="863" from-port="2" to-layer="867" to-port="2" />
		<edge from-layer="864" from-port="0" to-layer="866" to-port="1" />
		<edge from-layer="865" from-port="0" to-layer="866" to-port="2" />
		<edge from-layer="866" from-port="3" to-layer="867" to-port="3" />
		<edge from-layer="867" from-port="4" to-layer="868" to-port="1" />
		<edge from-layer="868" from-port="2" to-layer="870" to-port="0" />
		<edge from-layer="869" from-port="0" to-layer="870" to-port="1" />
		<edge from-layer="870" from-port="2" to-layer="878" to-port="0" />
		<edge from-layer="871" from-port="0" to-layer="873" to-port="1" />
		<edge from-layer="872" from-port="0" to-layer="873" to-port="2" />
		<edge from-layer="873" from-port="3" to-layer="877" to-port="0" />
		<edge from-layer="874" from-port="0" to-layer="876" to-port="1" />
		<edge from-layer="875" from-port="0" to-layer="876" to-port="2" />
		<edge from-layer="876" from-port="3" to-layer="877" to-port="2" />
		<edge from-layer="877" from-port="3" to-layer="878" to-port="1" />
		<edge from-layer="878" from-port="2" to-layer="880" to-port="0" />
		<edge from-layer="879" from-port="0" to-layer="880" to-port="1" />
		<edge from-layer="880" from-port="2" to-layer="882" to-port="0" />
		<edge from-layer="881" from-port="0" to-layer="882" to-port="1" />
		<edge from-layer="882" from-port="2" to-layer="883" to-port="0" />
		<edge from-layer="883" from-port="1" to-layer="885" to-port="0" />
		<edge from-layer="884" from-port="0" to-layer="885" to-port="1" />
		<edge from-layer="885" from-port="2" to-layer="887" to-port="0" />
		<edge from-layer="886" from-port="0" to-layer="887" to-port="1" />
		<edge from-layer="887" from-port="2" to-layer="889" to-port="0" />
		<edge from-layer="888" from-port="0" to-layer="889" to-port="1" />
		<edge from-layer="889" from-port="2" to-layer="890" to-port="0" />
	</edges>
	<rt_info>
		<MO_version value="2023.0.1-11005-fa1c41994f3-releases/2023/0" />
		<Runtime_version value="2023.0.1-11005-fa1c41994f3-releases/2023/0" />
		<conversion_parameters>
			<input_model value="DIR\shufflenet_v2_x0_5-dynamic_batch-half.onnx" />
			<is_python_api_used value="False" />
			<output_dir value="d:\ml\code\self\dl-infer-learn\python\..\models\shufflenet_v2_x0_5-dynamic_batch-half-openvino" />
		</conversion_parameters>
		<legacy_frontend value="False" />
	</rt_info>
</net>
